…
(WorkerDict pid=25183, ip=[fdbd:dccd:cdc2:12c8:0:204::]) [INFO|/opt/tiger/ray/session_2026-07-22_21-51-44_016392_3268/runtime_resources/working_dir_files/_ray_pkg_2bdef8199c6fe908/submodules/Open-VeOmni/veomni/distributed/torch_parallelize.py:128] 07/22/2026 21:56:31 >> target classes to shard: {'Qwen3DecoderLayer'}
(WorkerDict pid=25183, ip=[fdbd:dccd:cdc2:12c8:0:204::]) [INFO|/opt/tiger/ray/session_2026-07-22_21-51-44_016392_3268/runtime_resources/working_dir_files/_ray_pkg_2bdef8199c6fe908/submodules/Open-VeOmni/veomni/distributed/torch_parallelize.py:215] 07/22/2026 21:56:31 >> extra_parallel layer pairs: {'model.layers.0': (Qwen3DecoderLayer(
(WorkerDict pid=25183, ip=[fdbd:dccd:cdc2:12c8:0:204::])   (self_attn): Qwen3Attention(
(WorkerDict pid=25183, ip=[fdbd:dccd:cdc2:12c8:0:204::])     (q_proj): Linear(in_features=4096, out_features=4096, bias=False)
(WorkerDict pid=25183, ip=[fdbd:dccd:cdc2:12c8:0:204::])     (k_proj): Linear(in_features=4096, out_features=1024, bias=False)
(WorkerDict pid=25183, ip=[fdbd:dccd:cdc2:12c8:0:204::])     (v_proj): Linear(in_features=4096, out_features=1024, bias=False)
(WorkerDict pid=25183, ip=[fdbd:dccd:cdc2:12c8:0:204::])     (o_proj): Linear(in_features=4096, out_features=4096, bias=False)
(WorkerDict pid=25183, ip=[fdbd:dccd:cdc2:12c8:0:204::])     (q_norm): Qwen3RMSNorm((128,), eps=1e-06)
(WorkerDict pid=25183, ip=[fdbd:dccd:cdc2:12c8:0:204::])     (k_norm): Qwen3RMSNorm((128,), eps=1e-06)
(WorkerDict pid=25183, ip=[fdbd:dccd:cdc2:12c8:0:204::])   )
(WorkerDict pid=25183, ip=[fdbd:dccd:cdc2:12c8:0:204::])   (mlp): Qwen3MLP(
(WorkerDict pid=25183, ip=[fdbd:dccd:cdc2:12c8:0:204::])     (gate_proj): Linear(in_features=4096, out_features=12288, bias=False)
(WorkerDict pid=25183, ip=[fdbd:dccd:cdc2:12c8:0:204::])     (up_proj): Linear(in_features=4096, out_features=12288, bias=False)
(WorkerDict pid=25183, ip=[fdbd:dccd:cdc2:12c8:0:204::])     (down_proj): Linear(in_features=12288, out_features=4096, bias=False)
(WorkerDict pid=25183, ip=[fdbd:dccd:cdc2:12c8:0:204::])     (act_fn): SiLUActivation()
(WorkerDict pid=25183, ip=[fdbd:dccd:cdc2:12c8:0:204::])   )
(WorkerDict pid=25183, ip=[fdbd:dccd:cdc2:12c8:0:204::])   (input_layernorm): Qwen3RMSNorm((4096,), eps=1e-06)
(WorkerDict pid=25183, ip=[fdbd:dccd:cdc2:12c8:0:204::])   (post_attention_layernorm): Qwen3RMSNorm((4096,), eps=1e-06)
(WorkerDict pid=25183, ip=[fdbd:dccd:cdc2:12c8:0:204::]) ), {}), 'model.layers.1': (Qwen3DecoderLayer(
(WorkerDict pid=25183, ip=[fdbd:dccd:cdc2:12c8:0:204::])   (self_attn): Qwen3Attention(
(WorkerDict pid=25183, ip=[fdbd:dccd:cdc2:12c8:0:204::])     (q_proj): Linear(in_features=4096, out_features=4096, bias=False)
(WorkerDict pid=25183, ip=[fdbd:dccd:cdc2:12c8:0:204::])     (k_proj): Linear(in_features=4096, out_features=1024, bias=False)
(WorkerDict pid=25183, ip=[fdbd:dccd:cdc2:12c8:0:204::])     (v_proj): Linear(in_features=4096, out_features=1024, bias=False)
(WorkerDict pid=25183, ip=[fdbd:dccd:cdc2:12c8:0:204::])     (o_proj): Linear(in_features=4096, out_features=4096, bias=False)
(WorkerDict pid=25183, ip=[fdbd:dccd:cdc2:12c8:0:204::])     (q_norm): Qwen3RMSNorm((128,), eps=1e-06)
(WorkerDict pid=25183, ip=[fdbd:dccd:cdc2:12c8:0:204::])     (k_norm): Qwen3RMSNorm((128,), eps=1e-06)
(WorkerDict pid=25183, ip=[fdbd:dccd:cdc2:12c8:0:204::])   )
(WorkerDict pid=25183, ip=[fdbd:dccd:cdc2:12c8:0:204::])   (mlp): Qwen3MLP(
(WorkerDict pid=25183, ip=[fdbd:dccd:cdc2:12c8:0:204::])     (gate_proj): Linear(in_features=4096, out_features=12288, bias=False)
(WorkerDict pid=25183, ip=[fdbd:dccd:cdc2:12c8:0:204::])     (up_proj): Linear(in_features=4096, out_features=12288, bias=False)
(WorkerDict pid=25183, ip=[fdbd:dccd:cdc2:12c8:0:204::])     (down_proj): Linear(in_features=12288, out_features=4096, bias=False)
(WorkerDict pid=25183, ip=[fdbd:dccd:cdc2:12c8:0:204::])     (act_fn): SiLUActivation()
(WorkerDict pid=25183, ip=[fdbd:dccd:cdc2:12c8:0:204::])   )
(WorkerDict pid=25183, ip=[fdbd:dccd:cdc2:12c8:0:204::])   (input_layernorm): Qwen3RMSNorm((4096,), eps=1e-06)
(WorkerDict pid=25183, ip=[fdbd:dccd:cdc2:12c8:0:204::])   (post_attention_layernorm): Qwen3RMSNorm((4096,), eps=1e-06)
(WorkerDict pid=25183, ip=[fdbd:dccd:cdc2:12c8:0:204::]) ), {}), 'model.layers.2': (Qwen3DecoderLayer(
(WorkerDict pid=25183, ip=[fdbd:dccd:cdc2:12c8:0:204::])   (self_attn): Qwen3Attention(
(WorkerDict pid=25183, ip=[fdbd:dccd:cdc2:12c8:0:204::])     (q_proj): Linear(in_features=4096, out_features=4096, bias=False)
(WorkerDict pid=25183, ip=[fdbd:dccd:cdc2:12c8:0:204::])     (k_proj): Linear(in_features=4096, out_features=1024, bias=False)
(WorkerDict pid=25183, ip=[fdbd:dccd:cdc2:12c8:0:204::])     (v_proj): Linear(in_features=4096, out_features=1024, bias=False)
(WorkerDict pid=25183, ip=[fdbd:dccd:cdc2:12c8:0:204::])     (o_proj): Linear(in_features=4096, out_features=4096, bias=False)
(WorkerDict pid=25183, ip=[fdbd:dccd:cdc2:12c8:0:204::])     (q_norm): Qwen3RMSNorm((128,), eps=1e-06)
(WorkerDict pid=25183, ip=[fdbd:dccd:cdc2:12c8:0:204::])     (k_norm): Qwen3RMSNorm((128,), eps=1e-06)
(WorkerDict pid=25183, ip=[fdbd:dccd:cdc2:12c8:0:204::])   )
(WorkerDict pid=25183, ip=[fdbd:dccd:cdc2:12c8:0:204::])   (mlp): Qwen3MLP(
(WorkerDict pid=25183, ip=[fdbd:dccd:cdc2:12c8:0:204::])     (gate_proj): Linear(in_features=4096, out_features=12288, bias=False)
(WorkerDict pid=25183, ip=[fdbd:dccd:cdc2:12c8:0:204::])     (up_proj): Linear(in_features=4096, out_features=12288, bias=False)
(WorkerDict pid=25183, ip=[fdbd:dccd:cdc2:12c8:0:204::])     (down_proj): Linear(in_features=12288, out_features=4096, bias=False)
(WorkerDict pid=25183, ip=[fdbd:dccd:cdc2:12c8:0:204::])     (act_fn): SiLUActivation()
(WorkerDict pid=25183, ip=[fdbd:dccd:cdc2:12c8:0:204::])   )
(WorkerDict pid=25183, ip=[fdbd:dccd:cdc2:12c8:0:204::])   (input_layernorm): Qwen3RMSNorm((4096,), eps=1e-06)
(WorkerDict pid=25183, ip=[fdbd:dccd:cdc2:12c8:0:204::])   (post_attention_layernorm): Qwen3RMSNorm((4096,), eps=1e-06)
(WorkerDict pid=25183, ip=[fdbd:dccd:cdc2:12c8:0:204::]) ), {}), 'model.layers.3': (Qwen3DecoderLayer(
(WorkerDict pid=25183, ip=[fdbd:dccd:cdc2:12c8:0:204::])   (self_attn): Qwen3Attention(
(WorkerDict pid=25183, ip=[fdbd:dccd:cdc2:12c8:0:204::])     (q_proj): Linear(in_features=4096, out_features=4096, bias=False)
(WorkerDict pid=25183, ip=[fdbd:dccd:cdc2:12c8:0:204::])     (k_proj): Linear(in_features=4096, out_features=1024, bias=False)
(WorkerDict pid=25183, ip=[fdbd:dccd:cdc2:12c8:0:204::])     (v_proj): Linear(in_features=4096, out_features=1024, bias=False)
(WorkerDict pid=25183, ip=[fdbd:dccd:cdc2:12c8:0:204::])     (o_proj): Linear(in_features=4096, out_features=4096, bias=False)
(WorkerDict pid=25183, ip=[fdbd:dccd:cdc2:12c8:0:204::])     (q_norm): Qwen3RMSNorm((128,), eps=1e-06)
(WorkerDict pid=25183, ip=[fdbd:dccd:cdc2:12c8:0:204::])     (k_norm): Qwen3RMSNorm((128,), eps=1e-06)
(WorkerDict pid=25183, ip=[fdbd:dccd:cdc2:12c8:0:204::])   )
(WorkerDict pid=25183, ip=[fdbd:dccd:cdc2:12c8:0:204::])   (mlp): Qwen3MLP(
(WorkerDict pid=25183, ip=[fdbd:dccd:cdc2:12c8:0:204::])     (gate_proj): Linear(in_features=4096, out_features=12288, bias=False)
(WorkerDict pid=25183, ip=[fdbd:dccd:cdc2:12c8:0:204::])     (up_proj): Linear(in_features=4096, out_features=12288, bias=False)
(WorkerDict pid=25183, ip=[fdbd:dccd:cdc2:12c8:0:204::])     (down_proj): Linear(in_features=12288, out_features=4096, bias=False)
(WorkerDict pid=25183, ip=[fdbd:dccd:cdc2:12c8:0:204::])     (act_fn): SiLUActivation()
(WorkerDict pid=25183, ip=[fdbd:dccd:cdc2:12c8:0:204::])   )
(WorkerDict pid=25183, ip=[fdbd:dccd:cdc2:12c8:0:204::])   (input_layernorm): Qwen3RMSNorm((4096,), eps=1e-06)
(WorkerDict pid=25183, ip=[fdbd:dccd:cdc2:12c8:0:204::])   (post_attention_layernorm): Qwen3RMSNorm((4096,), eps=1e-06)
(WorkerDict pid=25183, ip=[fdbd:dccd:cdc2:12c8:0:204::]) ), {}), 'model.layers.4': (Qwen3DecoderLayer(
(WorkerDict pid=25183, ip=[fdbd:dccd:cdc2:12c8:0:204::])   (self_attn): Qwen3Attention(
(WorkerDict pid=25183, ip=[fdbd:dccd:cdc2:12c8:0:204::])     (q_proj): Linear(in_features=4096, out_features=4096, bias=False)
(WorkerDict pid=25183, ip=[fdbd:dccd:cdc2:12c8:0:204::])     (k_proj): Linear(in_features=4096, out_features=1024, bias=False)
(WorkerDict pid=25183, ip=[fdbd:dccd:cdc2:12c8:0:204::])     (v_proj): Linear(in_features=4096, out_features=1024, bias=False)
(WorkerDict pid=25183, ip=[fdbd:dccd:cdc2:12c8:0:204::])     (o_proj): Linear(in_features=4096, out_features=4096, bias=False)
(WorkerDict pid=25183, ip=[fdbd:dccd:cdc2:12c8:0:204::])     (q_norm): Qwen3RMSNorm((128,), eps=1e-06)
(WorkerDict pid=25183, ip=[fdbd:dccd:cdc2:12c8:0:204::])     (k_norm): Qwen3RMSNorm((128,), eps=1e-06)
(WorkerDict pid=25183, ip=[fdbd:dccd:cdc2:12c8:0:204::])   )
(WorkerDict pid=25183, ip=[fdbd:dccd:cdc2:12c8:0:204::])   (mlp): Qwen3MLP(
(WorkerDict pid=25183, ip=[fdbd:dccd:cdc2:12c8:0:204::])     (gate_proj): Linear(in_features=4096, out_features=12288, bias=False)
(WorkerDict pid=25183, ip=[fdbd:dccd:cdc2:12c8:0:204::])     (up_proj): Linear(in_features=4096, out_features=12288, bias=False)
(WorkerDict pid=25183, ip=[fdbd:dccd:cdc2:12c8:0:204::])     (down_proj): Linear(in_features=12288, out_features=4096, bias=False)
(WorkerDict pid=25183, ip=[fdbd:dccd:cdc2:12c8:0:204::])     (act_fn): SiLUActivation()
(WorkerDict pid=25183, ip=[fdbd:dccd:cdc2:12c8:0:204::])   )
(WorkerDict pid=25183, ip=[fdbd:dccd:cdc2:12c8:0:204::])   (input_layernorm): Qwen3RMSNorm((4096,), eps=1e-06)
(WorkerDict pid=25183, ip=[fdbd:dccd:cdc2:12c8:0:204::])   (post_attention_layernorm): Qwen3RMSNorm((4096,), eps=1e-06)
(WorkerDict pid=25183, ip=[fdbd:dccd:cdc2:12c8:0:204::]) ), {}), 'model.layers.5': (Qwen3DecoderLayer(
(WorkerDict pid=25183, ip=[fdbd:dccd:cdc2:12c8:0:204::])   (self_attn): Qwen3Attention(
(WorkerDict pid=25183, ip=[fdbd:dccd:cdc2:12c8:0:204::])     (q_proj): Linear(in_features=4096, out_features=4096, bias=False)
(WorkerDict pid=25183, ip=[fdbd:dccd:cdc2:12c8:0:204::])     (k_proj): Linear(in_features=4096, out_features=1024, bias=False)
(WorkerDict pid=25183, ip=[fdbd:dccd:cdc2:12c8:0:204::])     (v_proj): Linear(in_features=4096, out_features=1024, bias=False)
(WorkerDict pid=25183, ip=[fdbd:dccd:cdc2:12c8:0:204::])     (o_proj): Linear(in_features=4096, out_features=4096, bias=False)
(WorkerDict pid=25183, ip=[fdbd:dccd:cdc2:12c8:0:204::])     (q_norm): Qwen3RMSNorm((128,), eps=1e-06)
(WorkerDict pid=25183, ip=[fdbd:dccd:cdc2:12c8:0:204::])     (k_norm): Qwen3RMSNorm((128,), eps=1e-06)
(WorkerDict pid=25183, ip=[fdbd:dccd:cdc2:12c8:0:204::])   )
(WorkerDict pid=25183, ip=[fdbd:dccd:cdc2:12c8:0:204::])   (mlp): Qwen3MLP(
(WorkerDict pid=25183, ip=[fdbd:dccd:cdc2:12c8:0:204::])     (gate_proj): Linear(in_features=4096, out_features=12288, bias=False)
(WorkerDict pid=25183, ip=[fdbd:dccd:cdc2:12c8:0:204::])     (up_proj): Linear(in_features=4096, out_features=12288, bias=False)
(WorkerDict pid=25183, ip=[fdbd:dccd:cdc2:12c8:0:204::])     (down_proj): Linear(in_features=12288, out_features=4096, bias=False)
(WorkerDict pid=25183, ip=[fdbd:dccd:cdc2:12c8:0:204::])     (act_fn): SiLUActivation()
(WorkerDict pid=25183, ip=[fdbd:dccd:cdc2:12c8:0:204::])   )
(WorkerDict pid=25183, ip=[fdbd:dccd:cdc2:12c8:0:204::])   (input_layernorm): Qwen3RMSNorm((4096,), eps=1e-06)
(WorkerDict pid=25183, ip=[fdbd:dccd:cdc2:12c8:0:204::])   (post_attention_layernorm): Qwen3RMSNorm((4096,), eps=1e-06)
(WorkerDict pid=25183, ip=[fdbd:dccd:cdc2:12c8:0:204::]) ), {}), 'model.layers.6': (Qwen3DecoderLayer(
(WorkerDict pid=25183, ip=[fdbd:dccd:cdc2:12c8:0:204::])   (self_attn): Qwen3Attention(
(WorkerDict pid=25183, ip=[fdbd:dccd:cdc2:12c8:0:204::])     (q_proj): Linear(in_features=4096, out_features=4096, bias=False)
(WorkerDict pid=25183, ip=[fdbd:dccd:cdc2:12c8:0:204::])     (k_proj): Linear(in_features=4096, out_features=1024, bias=False)
(WorkerDict pid=25183, ip=[fdbd:dccd:cdc2:12c8:0:204::])     (v_proj): Linear(in_features=4096, out_features=1024, bias=False)
(WorkerDict pid=25183, ip=[fdbd:dccd:cdc2:12c8:0:204::])     (o_proj): Linear(in_features=4096, out_features=4096, bias=False)
(WorkerDict pid=25183, ip=[fdbd:dccd:cdc2:12c8:0:204::])     (q_norm): Qwen3RMSNorm((128,), eps=1e-06)
(WorkerDict pid=25183, ip=[fdbd:dccd:cdc2:12c8:0:204::])     (k_norm): Qwen3RMSNorm((128,), eps=1e-06)
(WorkerDict pid=25183, ip=[fdbd:dccd:cdc2:12c8:0:204::])   )
(WorkerDict pid=25183, ip=[fdbd:dccd:cdc2:12c8:0:204::])   (mlp): Qwen3MLP(
(WorkerDict pid=25183, ip=[fdbd:dccd:cdc2:12c8:0:204::])     (gate_proj): Linear(in_features=4096, out_features=12288, bias=False)
(WorkerDict pid=25183, ip=[fdbd:dccd:cdc2:12c8:0:204::])     (up_proj): Linear(in_features=4096, out_features=12288, bias=False)
(WorkerDict pid=25183, ip=[fdbd:dccd:cdc2:12c8:0:204::])     (down_proj): Linear(in_features=12288, out_features=4096, bias=False)
(WorkerDict pid=25183, ip=[fdbd:dccd:cdc2:12c8:0:204::])     (act_fn): SiLUActivation()
(WorkerDict pid=25183, ip=[fdbd:dccd:cdc2:12c8:0:204::])   )
(WorkerDict pid=25183, ip=[fdbd:dccd:cdc2:12c8:0:204::])   (input_layernorm): Qwen3RMSNorm((4096,), eps=1e-06)
(WorkerDict pid=25183, ip=[fdbd:dccd:cdc2:12c8:0:204::])   (post_attention_layernorm): Qwen3RMSNorm((4096,), eps=1e-06)
(WorkerDict pid=25183, ip=[fdbd:dccd:cdc2:12c8:0:204::]) ), {}), 'model.layers.7': (Qwen3DecoderLayer(
(WorkerDict pid=25183, ip=[fdbd:dccd:cdc2:12c8:0:204::])   (self_attn): Qwen3Attention(
(WorkerDict pid=25183, ip=[fdbd:dccd:cdc2:12c8:0:204::])     (q_proj): Linear(in_features=4096, out_features=4096, bias=False)
(WorkerDict pid=25183, ip=[fdbd:dccd:cdc2:12c8:0:204::])     (k_proj): Linear(in_features=4096, out_features=1024, bias=False)
(WorkerDict pid=25183, ip=[fdbd:dccd:cdc2:12c8:0:204::])     (v_proj): Linear(in_features=4096, out_features=1024, bias=False)
(WorkerDict pid=25183, ip=[fdbd:dccd:cdc2:12c8:0:204::])     (o_proj): Linear(in_features=4096, out_features=4096, bias=False)
(WorkerDict pid=25183, ip=[fdbd:dccd:cdc2:12c8:0:204::])     (q_norm): Qwen3RMSNorm((128,), eps=1e-06)
(WorkerDict pid=25183, ip=[fdbd:dccd:cdc2:12c8:0:204::])     (k_norm): Qwen3RMSNorm((128,), eps=1e-06)
(WorkerDict pid=25183, ip=[fdbd:dccd:cdc2:12c8:0:204::])   )
(WorkerDict pid=25183, ip=[fdbd:dccd:cdc2:12c8:0:204::])   (mlp): Qwen3MLP(
(WorkerDict pid=25183, ip=[fdbd:dccd:cdc2:12c8:0:204::])     (gate_proj): Linear(in_features=4096, out_features=12288, bias=False)
(WorkerDict pid=25183, ip=[fdbd:dccd:cdc2:12c8:0:204::])     (up_proj): Linear(in_features=4096, out_features=12288, bias=False)
(WorkerDict pid=25183, ip=[fdbd:dccd:cdc2:12c8:0:204::])     (down_proj): Linear(in_features=12288, out_features=4096, bias=False)
(WorkerDict pid=25183, ip=[fdbd:dccd:cdc2:12c8:0:204::])     (act_fn): SiLUActivation()
(WorkerDict pid=25183, ip=[fdbd:dccd:cdc2:12c8:0:204::])   )
(WorkerDict pid=25183, ip=[fdbd:dccd:cdc2:12c8:0:204::])   (input_layernorm): Qwen3RMSNorm((4096,), eps=1e-06)
(WorkerDict pid=25183, ip=[fdbd:dccd:cdc2:12c8:0:204::])   (post_attention_layernorm): Qwen3RMSNorm((4096,), eps=1e-06)
(WorkerDict pid=25183, ip=[fdbd:dccd:cdc2:12c8:0:204::]) ), {}), 'model.layers.8': (Qwen3DecoderLayer(
(WorkerDict pid=25183, ip=[fdbd:dccd:cdc2:12c8:0:204::])   (self_attn): Qwen3Attention(
(WorkerDict pid=25183, ip=[fdbd:dccd:cdc2:12c8:0:204::])     (q_proj): Linear(in_features=4096, out_features=4096, bias=False)
(WorkerDict pid=25183, ip=[fdbd:dccd:cdc2:12c8:0:204::])     (k_proj): Linear(in_features=4096, out_features=1024, bias=False)
(WorkerDict pid=25183, ip=[fdbd:dccd:cdc2:12c8:0:204::])     (v_proj): Linear(in_features=4096, out_features=1024, bias=False)
(WorkerDict pid=25183, ip=[fdbd:dccd:cdc2:12c8:0:204::])     (o_proj): Linear(in_features=4096, out_features=4096, bias=False)
(WorkerDict pid=25183, ip=[fdbd:dccd:cdc2:12c8:0:204::])     (q_norm): Qwen3RMSNorm((128,), eps=1e-06)
(WorkerDict pid=25183, ip=[fdbd:dccd:cdc2:12c8:0:204::])     (k_norm): Qwen3RMSNorm((128,), eps=1e-06)
(WorkerDict pid=25183, ip=[fdbd:dccd:cdc2:12c8:0:204::])   )
(WorkerDict pid=25183, ip=[fdbd:dccd:cdc2:12c8:0:204::])   (mlp): Qwen3MLP(
(WorkerDict pid=25183, ip=[fdbd:dccd:cdc2:12c8:0:204::])     (gate_proj): Linear(in_features=4096, out_features=12288, bias=False)
(WorkerDict pid=25183, ip=[fdbd:dccd:cdc2:12c8:0:204::])     (up_proj): Linear(in_features=4096, out_features=12288, bias=False)
(WorkerDict pid=25183, ip=[fdbd:dccd:cdc2:12c8:0:204::])     (down_proj): Linear(in_features=12288, out_features=4096, bias=False)
(WorkerDict pid=25183, ip=[fdbd:dccd:cdc2:12c8:0:204::])     (act_fn): SiLUActivation()
(WorkerDict pid=25183, ip=[fdbd:dccd:cdc2:12c8:0:204::])   )
(WorkerDict pid=25183, ip=[fdbd:dccd:cdc2:12c8:0:204::])   (input_layernorm): Qwen3RMSNorm((4096,), eps=1e-06)
(WorkerDict pid=25183, ip=[fdbd:dccd:cdc2:12c8:0:204::])   (post_attention_layernorm): Qwen3RMSNorm((4096,), eps=1e-06)
(WorkerDict pid=25183, ip=[fdbd:dccd:cdc2:12c8:0:204::]) ), {}), 'model.layers.9': (Qwen3DecoderLayer(
(WorkerDict pid=25183, ip=[fdbd:dccd:cdc2:12c8:0:204::])   (self_attn): Qwen3Attention(
(WorkerDict pid=25183, ip=[fdbd:dccd:cdc2:12c8:0:204::])     (q_proj): Linear(in_features=4096, out_features=4096, bias=False)
(WorkerDict pid=25183, ip=[fdbd:dccd:cdc2:12c8:0:204::])     (k_proj): Linear(in_features=4096, out_features=1024, bias=False)
(WorkerDict pid=25183, ip=[fdbd:dccd:cdc2:12c8:0:204::])     (v_proj): Linear(in_features=4096, out_features=1024, bias=False)
(WorkerDict pid=25183, ip=[fdbd:dccd:cdc2:12c8:0:204::])     (o_proj): Linear(in_features=4096, out_features=4096, bias=False)
(WorkerDict pid=25183, ip=[fdbd:dccd:cdc2:12c8:0:204::])     (q_norm): Qwen3RMSNorm((128,), eps=1e-06)
(WorkerDict pid=25183, ip=[fdbd:dccd:cdc2:12c8:0:204::])     (k_norm): Qwen3RMSNorm((128,), eps=1e-06)
(WorkerDict pid=25183, ip=[fdbd:dccd:cdc2:12c8:0:204::])   )
(WorkerDict pid=25183, ip=[fdbd:dccd:cdc2:12c8:0:204::])   (mlp): Qwen3MLP(
(WorkerDict pid=25183, ip=[fdbd:dccd:cdc2:12c8:0:204::])     (gate_proj): Linear(in_features=4096, out_features=12288, bias=False)
(WorkerDict pid=25183, ip=[fdbd:dccd:cdc2:12c8:0:204::])     (up_proj): Linear(in_features=4096, out_features=12288, bias=False)
(WorkerDict pid=25183, ip=[fdbd:dccd:cdc2:12c8:0:204::])     (down_proj): Linear(in_features=12288, out_features=4096, bias=False)
(WorkerDict pid=25183, ip=[fdbd:dccd:cdc2:12c8:0:204::])     (act_fn): SiLUActivation()
(WorkerDict pid=25183, ip=[fdbd:dccd:cdc2:12c8:0:204::])   )
(WorkerDict pid=25183, ip=[fdbd:dccd:cdc2:12c8:0:204::])   (input_layernorm): Qwen3RMSNorm((4096,), eps=1e-06)
(WorkerDict pid=25183, ip=[fdbd:dccd:cdc2:12c8:0:204::])   (post_attention_layernorm): Qwen3RMSNorm((4096,), eps=1e-06)
(WorkerDict pid=25183, ip=[fdbd:dccd:cdc2:12c8:0:204::]) ), {}), 'model.layers.10': (Qwen3DecoderLayer(
(WorkerDict pid=25183, ip=[fdbd:dccd:cdc2:12c8:0:204::])   (self_attn): Qwen3Attention(
(WorkerDict pid=25183, ip=[fdbd:dccd:cdc2:12c8:0:204::])     (q_proj): Linear(in_features=4096, out_features=4096, bias=False)
(WorkerDict pid=25183, ip=[fdbd:dccd:cdc2:12c8:0:204::])     (k_proj): Linear(in_features=4096, out_features=1024, bias=False)
(WorkerDict pid=25183, ip=[fdbd:dccd:cdc2:12c8:0:204::])     (v_proj): Linear(in_features=4096, out_features=1024, bias=False)
(WorkerDict pid=25183, ip=[fdbd:dccd:cdc2:12c8:0:204::])     (o_proj): Linear(in_features=4096, out_features=4096, bias=False)
(WorkerDict pid=25183, ip=[fdbd:dccd:cdc2:12c8:0:204::])     (q_norm): Qwen3RMSNorm((128,), eps=1e-06)
(WorkerDict pid=25183, ip=[fdbd:dccd:cdc2:12c8:0:204::])     (k_norm): Qwen3RMSNorm((128,), eps=1e-06)
(WorkerDict pid=25183, ip=[fdbd:dccd:cdc2:12c8:0:204::])   )
(WorkerDict pid=25183, ip=[fdbd:dccd:cdc2:12c8:0:204::])   (mlp): Qwen3MLP(
(WorkerDict pid=25183, ip=[fdbd:dccd:cdc2:12c8:0:204::])     (gate_proj): Linear(in_features=4096, out_features=12288, bias=False)
(WorkerDict pid=25183, ip=[fdbd:dccd:cdc2:12c8:0:204::])     (up_proj): Linear(in_features=4096, out_features=12288, bias=False)
(WorkerDict pid=25183, ip=[fdbd:dccd:cdc2:12c8:0:204::])     (down_proj): Linear(in_features=12288, out_features=4096, bias=False)
(WorkerDict pid=25183, ip=[fdbd:dccd:cdc2:12c8:0:204::])     (act_fn): SiLUActivation()
(WorkerDict pid=25183, ip=[fdbd:dccd:cdc2:12c8:0:204::])   )
(WorkerDict pid=25183, ip=[fdbd:dccd:cdc2:12c8:0:204::])   (input_layernorm): Qwen3RMSNorm((4096,), eps=1e-06)
(WorkerDict pid=25183, ip=[fdbd:dccd:cdc2:12c8:0:204::])   (post_attention_layernorm): Qwen3RMSNorm((4096,), eps=1e-06)
(WorkerDict pid=25183, ip=[fdbd:dccd:cdc2:12c8:0:204::]) ), {}), 'model.layers.11': (Qwen3DecoderLayer(
(WorkerDict pid=25183, ip=[fdbd:dccd:cdc2:12c8:0:204::])   (self_attn): Qwen3Attention(
(WorkerDict pid=25183, ip=[fdbd:dccd:cdc2:12c8:0:204::])     (q_proj): Linear(in_features=4096, out_features=4096, bias=False)
(WorkerDict pid=25183, ip=[fdbd:dccd:cdc2:12c8:0:204::])     (k_proj): Linear(in_features=4096, out_features=1024, bias=False)
(WorkerDict pid=25183, ip=[fdbd:dccd:cdc2:12c8:0:204::])     (v_proj): Linear(in_features=4096, out_features=1024, bias=False)
(WorkerDict pid=25183, ip=[fdbd:dccd:cdc2:12c8:0:204::])     (o_proj): Linear(in_features=4096, out_features=4096, bias=False)
(WorkerDict pid=25183, ip=[fdbd:dccd:cdc2:12c8:0:204::])     (q_norm): Qwen3RMSNorm((128,), eps=1e-06)
(WorkerDict pid=25183, ip=[fdbd:dccd:cdc2:12c8:0:204::])     (k_norm): Qwen3RMSNorm((128,), eps=1e-06)
(WorkerDict pid=25183, ip=[fdbd:dccd:cdc2:12c8:0:204::])   )
(WorkerDict pid=25183, ip=[fdbd:dccd:cdc2:12c8:0:204::])   (mlp): Qwen3MLP(
(WorkerDict pid=25183, ip=[fdbd:dccd:cdc2:12c8:0:204::])     (gate_proj): Linear(in_features=4096, out_features=12288, bias=False)
(WorkerDict pid=25183, ip=[fdbd:dccd:cdc2:12c8:0:204::])     (up_proj): Linear(in_features=4096, out_features=12288, bias=False)
(WorkerDict pid=25183, ip=[fdbd:dccd:cdc2:12c8:0:204::])     (down_proj): Linear(in_features=12288, out_features=4096, bias=False)
(WorkerDict pid=25183, ip=[fdbd:dccd:cdc2:12c8:0:204::])     (act_fn): SiLUActivation()
(WorkerDict pid=25183, ip=[fdbd:dccd:cdc2:12c8:0:204::])   )
(WorkerDict pid=25183, ip=[fdbd:dccd:cdc2:12c8:0:204::])   (input_layernorm): Qwen3RMSNorm((4096,), eps=1e-06)
(WorkerDict pid=25183, ip=[fdbd:dccd:cdc2:12c8:0:204::])   (post_attention_layernorm): Qwen3RMSNorm((4096,), eps=1e-06)
(WorkerDict pid=25183, ip=[fdbd:dccd:cdc2:12c8:0:204::]) ), {}), 'model.layers.12': (Qwen3DecoderLayer(
(WorkerDict pid=25183, ip=[fdbd:dccd:cdc2:12c8:0:204::])   (self_attn): Qwen3Attention(
(WorkerDict pid=25183, ip=[fdbd:dccd:cdc2:12c8:0:204::])     (q_proj): Linear(in_features=4096, out_features=4096, bias=False)
(WorkerDict pid=25183, ip=[fdbd:dccd:cdc2:12c8:0:204::])     (k_proj): Linear(in_features=4096, out_features=1024, bias=False)
(WorkerDict pid=25183, ip=[fdbd:dccd:cdc2:12c8:0:204::])     (v_proj): Linear(in_features=4096, out_features=1024, bias=False)
(WorkerDict pid=25183, ip=[fdbd:dccd:cdc2:12c8:0:204::])     (o_proj): Linear(in_features=4096, out_features=4096, bias=False)
(WorkerDict pid=25183, ip=[fdbd:dccd:cdc2:12c8:0:204::])     (q_norm): Qwen3RMSNorm((128,), eps=1e-06)
(WorkerDict pid=25183, ip=[fdbd:dccd:cdc2:12c8:0:204::])     (k_norm): Qwen3RMSNorm((128,), eps=1e-06)
(WorkerDict pid=25183, ip=[fdbd:dccd:cdc2:12c8:0:204::])   )
(WorkerDict pid=25183, ip=[fdbd:dccd:cdc2:12c8:0:204::])   (mlp): Qwen3MLP(
(WorkerDict pid=25183, ip=[fdbd:dccd:cdc2:12c8:0:204::])     (gate_proj): Linear(in_features=4096, out_features=12288, bias=False)
(WorkerDict pid=25183, ip=[fdbd:dccd:cdc2:12c8:0:204::])     (up_proj): Linear(in_features=4096, out_features=12288, bias=False)
(WorkerDict pid=25183, ip=[fdbd:dccd:cdc2:12c8:0:204::])     (down_proj): Linear(in_features=12288, out_features=4096, bias=False)
(WorkerDict pid=25183, ip=[fdbd:dccd:cdc2:12c8:0:204::])     (act_fn): SiLUActivation()
(WorkerDict pid=25183, ip=[fdbd:dccd:cdc2:12c8:0:204::])   )
(WorkerDict pid=25183, ip=[fdbd:dccd:cdc2:12c8:0:204::])   (input_layernorm): Qwen3RMSNorm((4096,), eps=1e-06)
(WorkerDict pid=25183, ip=[fdbd:dccd:cdc2:12c8:0:204::])   (post_attention_layernorm): Qwen3RMSNorm((4096,), eps=1e-06)
(WorkerDict pid=25183, ip=[fdbd:dccd:cdc2:12c8:0:204::]) ), {}), 'model.layers.13': (Qwen3DecoderLayer(
(WorkerDict pid=25183, ip=[fdbd:dccd:cdc2:12c8:0:204::])   (self_attn): Qwen3Attention(
(WorkerDict pid=25183, ip=[fdbd:dccd:cdc2:12c8:0:204::])     (q_proj): Linear(in_features=4096, out_features=4096, bias=False)
(WorkerDict pid=25183, ip=[fdbd:dccd:cdc2:12c8:0:204::])     (k_proj): Linear(in_features=4096, out_features=1024, bias=False)
(WorkerDict pid=25183, ip=[fdbd:dccd:cdc2:12c8:0:204::])     (v_proj): Linear(in_features=4096, out_features=1024, bias=False)
(WorkerDict pid=25183, ip=[fdbd:dccd:cdc2:12c8:0:204::])     (o_proj): Linear(in_features=4096, out_features=4096, bias=False)
(WorkerDict pid=25183, ip=[fdbd:dccd:cdc2:12c8:0:204::])     (q_norm): Qwen3RMSNorm((128,), eps=1e-06)
(WorkerDict pid=25183, ip=[fdbd:dccd:cdc2:12c8:0:204::])     (k_norm): Qwen3RMSNorm((128,), eps=1e-06)
(WorkerDict pid=25183, ip=[fdbd:dccd:cdc2:12c8:0:204::])   )
(WorkerDict pid=25183, ip=[fdbd:dccd:cdc2:12c8:0:204::])   (mlp): Qwen3MLP(
(WorkerDict pid=25183, ip=[fdbd:dccd:cdc2:12c8:0:204::])     (gate_proj): Linear(in_features=4096, out_features=12288, bias=False)
(WorkerDict pid=25183, ip=[fdbd:dccd:cdc2:12c8:0:204::])     (up_proj): Linear(in_features=4096, out_features=12288, bias=False)
(WorkerDict pid=25183, ip=[fdbd:dccd:cdc2:12c8:0:204::])     (down_proj): Linear(in_features=12288, out_features=4096, bias=False)
(WorkerDict pid=25183, ip=[fdbd:dccd:cdc2:12c8:0:204::])     (act_fn): SiLUActivation()
(WorkerDict pid=25183, ip=[fdbd:dccd:cdc2:12c8:0:204::])   )
(WorkerDict pid=25183, ip=[fdbd:dccd:cdc2:12c8:0:204::])   (input_layernorm): Qwen3RMSNorm((4096,), eps=1e-06)
(WorkerDict pid=25183, ip=[fdbd:dccd:cdc2:12c8:0:204::])   (post_attention_layernorm): Qwen3RMSNorm((4096,), eps=1e-06)
(WorkerDict pid=25183, ip=[fdbd:dccd:cdc2:12c8:0:204::]) ), {}), 'model.layers.14': (Qwen3DecoderLayer(
(WorkerDict pid=25183, ip=[fdbd:dccd:cdc2:12c8:0:204::])   (self_attn): Qwen3Attention(
(WorkerDict pid=25183, ip=[fdbd:dccd:cdc2:12c8:0:204::])     (q_proj): Linear(in_features=4096, out_features=4096, bias=False)
(WorkerDict pid=25183, ip=[fdbd:dccd:cdc2:12c8:0:204::])     (k_proj): Linear(in_features=4096, out_features=1024, bias=False)
(WorkerDict pid=25183, ip=[fdbd:dccd:cdc2:12c8:0:204::])     (v_proj): Linear(in_features=4096, out_features=1024, bias=False)
(WorkerDict pid=25183, ip=[fdbd:dccd:cdc2:12c8:0:204::])     (o_proj): Linear(in_features=4096, out_features=4096, bias=False)
(WorkerDict pid=25183, ip=[fdbd:dccd:cdc2:12c8:0:204::])     (q_norm): Qwen3RMSNorm((128,), eps=1e-06)
(WorkerDict pid=25183, ip=[fdbd:dccd:cdc2:12c8:0:204::])     (k_norm): Qwen3RMSNorm((128,), eps=1e-06)
(WorkerDict pid=25183, ip=[fdbd:dccd:cdc2:12c8:0:204::])   )
(WorkerDict pid=25183, ip=[fdbd:dccd:cdc2:12c8:0:204::])   (mlp): Qwen3MLP(
(WorkerDict pid=25183, ip=[fdbd:dccd:cdc2:12c8:0:204::])     (gate_proj): Linear(in_features=4096, out_features=12288, bias=False)
(WorkerDict pid=25183, ip=[fdbd:dccd:cdc2:12c8:0:204::])     (up_proj): Linear(in_features=4096, out_features=12288, bias=False)
(WorkerDict pid=25183, ip=[fdbd:dccd:cdc2:12c8:0:204::])     (down_proj): Linear(in_features=12288, out_features=4096, bias=False)
(WorkerDict pid=25183, ip=[fdbd:dccd:cdc2:12c8:0:204::])     (act_fn): SiLUActivation()
(WorkerDict pid=25183, ip=[fdbd:dccd:cdc2:12c8:0:204::])   )
(WorkerDict pid=25183, ip=[fdbd:dccd:cdc2:12c8:0:204::])   (input_layernorm): Qwen3RMSNorm((4096,), eps=1e-06)
(WorkerDict pid=25183, ip=[fdbd:dccd:cdc2:12c8:0:204::])   (post_attention_layernorm): Qwen3RMSNorm((4096,), eps=1e-06)
(WorkerDict pid=25183, ip=[fdbd:dccd:cdc2:12c8:0:204::]) ), {}), 'model.layers.15': (Qwen3DecoderLayer(
(WorkerDict pid=25183, ip=[fdbd:dccd:cdc2:12c8:0:204::])   (self_attn): Qwen3Attention(
(WorkerDict pid=25183, ip=[fdbd:dccd:cdc2:12c8:0:204::])     (q_proj): Linear(in_features=4096, out_features=4096, bias=False)
(WorkerDict pid=25183, ip=[fdbd:dccd:cdc2:12c8:0:204::])     (k_proj): Linear(in_features=4096, out_features=1024, bias=False)
(WorkerDict pid=25183, ip=[fdbd:dccd:cdc2:12c8:0:204::])     (v_proj): Linear(in_features=4096, out_features=1024, bias=False)
(WorkerDict pid=25183, ip=[fdbd:dccd:cdc2:12c8:0:204::])     (o_proj): Linear(in_features=4096, out_features=4096, bias=False)
(WorkerDict pid=25183, ip=[fdbd:dccd:cdc2:12c8:0:204::])     (q_norm): Qwen3RMSNorm((128,), eps=1e-06)
(WorkerDict pid=25183, ip=[fdbd:dccd:cdc2:12c8:0:204::])     (k_norm): Qwen3RMSNorm((128,), eps=1e-06)
(WorkerDict pid=25183, ip=[fdbd:dccd:cdc2:12c8:0:204::])   )
(WorkerDict pid=25183, ip=[fdbd:dccd:cdc2:12c8:0:204::])   (mlp): Qwen3MLP(
(WorkerDict pid=25183, ip=[fdbd:dccd:cdc2:12c8:0:204::])     (gate_proj): Linear(in_features=4096, out_features=12288, bias=False)
(WorkerDict pid=25183, ip=[fdbd:dccd:cdc2:12c8:0:204::])     (up_proj): Linear(in_features=4096, out_features=12288, bias=False)
(WorkerDict pid=25183, ip=[fdbd:dccd:cdc2:12c8:0:204::])     (down_proj): Linear(in_features=12288, out_features=4096, bias=False)
(WorkerDict pid=25183, ip=[fdbd:dccd:cdc2:12c8:0:204::])     (act_fn): SiLUActivation()
(WorkerDict pid=25183, ip=[fdbd:dccd:cdc2:12c8:0:204::])   )
(WorkerDict pid=25183, ip=[fdbd:dccd:cdc2:12c8:0:204::])   (input_layernorm): Qwen3RMSNorm((4096,), eps=1e-06)
(WorkerDict pid=25183, ip=[fdbd:dccd:cdc2:12c8:0:204::])   (post_attention_layernorm): Qwen3RMSNorm((4096,), eps=1e-06)
(WorkerDict pid=25183, ip=[fdbd:dccd:cdc2:12c8:0:204::]) ), {}), 'model.layers.16': (Qwen3DecoderLayer(
(WorkerDict pid=25183, ip=[fdbd:dccd:cdc2:12c8:0:204::])   (self_attn): Qwen3Attention(
(WorkerDict pid=25183, ip=[fdbd:dccd:cdc2:12c8:0:204::])     (q_proj): Linear(in_features=4096, out_features=4096, bias=False)
(WorkerDict pid=25183, ip=[fdbd:dccd:cdc2:12c8:0:204::])     (k_proj): Linear(in_features=4096, out_features=1024, bias=False)
(WorkerDict pid=25183, ip=[fdbd:dccd:cdc2:12c8:0:204::])     (v_proj): Linear(in_features=4096, out_features=1024, bias=False)
(WorkerDict pid=25183, ip=[fdbd:dccd:cdc2:12c8:0:204::])     (o_proj): Linear(in_features=4096, out_features=4096, bias=False)
(WorkerDict pid=25183, ip=[fdbd:dccd:cdc2:12c8:0:204::])     (q_norm): Qwen3RMSNorm((128,), eps=1e-06)
(WorkerDict pid=25183, ip=[fdbd:dccd:cdc2:12c8:0:204::])     (k_norm): Qwen3RMSNorm((128,), eps=1e-06)
(WorkerDict pid=25183, ip=[fdbd:dccd:cdc2:12c8:0:204::])   )
(WorkerDict pid=25183, ip=[fdbd:dccd:cdc2:12c8:0:204::])   (mlp): Qwen3MLP(
(WorkerDict pid=25183, ip=[fdbd:dccd:cdc2:12c8:0:204::])     (gate_proj): Linear(in_features=4096, out_features=12288, bias=False)
(WorkerDict pid=25183, ip=[fdbd:dccd:cdc2:12c8:0:204::])     (up_proj): Linear(in_features=4096, out_features=12288, bias=False)
(WorkerDict pid=25183, ip=[fdbd:dccd:cdc2:12c8:0:204::])     (down_proj): Linear(in_features=12288, out_features=4096, bias=False)
(WorkerDict pid=25183, ip=[fdbd:dccd:cdc2:12c8:0:204::])     (act_fn): SiLUActivation()
(WorkerDict pid=25183, ip=[fdbd:dccd:cdc2:12c8:0:204::])   )
(WorkerDict pid=25183, ip=[fdbd:dccd:cdc2:12c8:0:204::])   (input_layernorm): Qwen3RMSNorm((4096,), eps=1e-06)
(WorkerDict pid=25183, ip=[fdbd:dccd:cdc2:12c8:0:204::])   (post_attention_layernorm): Qwen3RMSNorm((4096,), eps=1e-06)
(WorkerDict pid=25183, ip=[fdbd:dccd:cdc2:12c8:0:204::]) ), {}), 'model.layers.17': (Qwen3DecoderLayer(
(WorkerDict pid=25183, ip=[fdbd:dccd:cdc2:12c8:0:204::])   (self_attn): Qwen3Attention(
(WorkerDict pid=25183, ip=[fdbd:dccd:cdc2:12c8:0:204::])     (q_proj): Linear(in_features=4096, out_features=4096, bias=False)
(WorkerDict pid=25183, ip=[fdbd:dccd:cdc2:12c8:0:204::])     (k_proj): Linear(in_features=4096, out_features=1024, bias=False)
(WorkerDict pid=25183, ip=[fdbd:dccd:cdc2:12c8:0:204::])     (v_proj): Linear(in_features=4096, out_features=1024, bias=False)
(WorkerDict pid=25183, ip=[fdbd:dccd:cdc2:12c8:0:204::])     (o_proj): Linear(in_features=4096, out_features=4096, bias=False)
(WorkerDict pid=25183, ip=[fdbd:dccd:cdc2:12c8:0:204::])     (q_norm): Qwen3RMSNorm((128,), eps=1e-06)
(WorkerDict pid=25183, ip=[fdbd:dccd:cdc2:12c8:0:204::])     (k_norm): Qwen3RMSNorm((128,), eps=1e-06)
(WorkerDict pid=25183, ip=[fdbd:dccd:cdc2:12c8:0:204::])   )
(WorkerDict pid=25183, ip=[fdbd:dccd:cdc2:12c8:0:204::])   (mlp): Qwen3MLP(
(WorkerDict pid=25183, ip=[fdbd:dccd:cdc2:12c8:0:204::])     (gate_proj): Linear(in_features=4096, out_features=12288, bias=False)
(WorkerDict pid=25183, ip=[fdbd:dccd:cdc2:12c8:0:204::])     (up_proj): Linear(in_features=4096, out_features=12288, bias=False)
(WorkerDict pid=25183, ip=[fdbd:dccd:cdc2:12c8:0:204::])     (down_proj): Linear(in_features=12288, out_features=4096, bias=False)
(WorkerDict pid=25183, ip=[fdbd:dccd:cdc2:12c8:0:204::])     (act_fn): SiLUActivation()
(WorkerDict pid=25183, ip=[fdbd:dccd:cdc2:12c8:0:204::])   )
(WorkerDict pid=25183, ip=[fdbd:dccd:cdc2:12c8:0:204::])   (input_layernorm): Qwen3RMSNorm((4096,), eps=1e-06)
(WorkerDict pid=25183, ip=[fdbd:dccd:cdc2:12c8:0:204::])   (post_attention_layernorm): Qwen3RMSNorm((4096,), eps=1e-06)
(WorkerDict pid=25183, ip=[fdbd:dccd:cdc2:12c8:0:204::]) ), {}), 'model.layers.18': (Qwen3DecoderLayer(
(WorkerDict pid=25183, ip=[fdbd:dccd:cdc2:12c8:0:204::])   (self_attn): Qwen3Attention(
(WorkerDict pid=25183, ip=[fdbd:dccd:cdc2:12c8:0:204::])     (q_proj): Linear(in_features=4096, out_features=4096, bias=False)
(WorkerDict pid=25183, ip=[fdbd:dccd:cdc2:12c8:0:204::])     (k_proj): Linear(in_features=4096, out_features=1024, bias=False)
(WorkerDict pid=25183, ip=[fdbd:dccd:cdc2:12c8:0:204::])     (v_proj): Linear(in_features=4096, out_features=1024, bias=False)
(WorkerDict pid=25183, ip=[fdbd:dccd:cdc2:12c8:0:204::])     (o_proj): Linear(in_features=4096, out_features=4096, bias=False)
(WorkerDict pid=25183, ip=[fdbd:dccd:cdc2:12c8:0:204::])     (q_norm): Qwen3RMSNorm((128,), eps=1e-06)
(WorkerDict pid=25183, ip=[fdbd:dccd:cdc2:12c8:0:204::])     (k_norm): Qwen3RMSNorm((128,), eps=1e-06)
(WorkerDict pid=25183, ip=[fdbd:dccd:cdc2:12c8:0:204::])   )
(WorkerDict pid=25183, ip=[fdbd:dccd:cdc2:12c8:0:204::])   (mlp): Qwen3MLP(
(WorkerDict pid=25183, ip=[fdbd:dccd:cdc2:12c8:0:204::])     (gate_proj): Linear(in_features=4096, out_features=12288, bias=False)
(WorkerDict pid=25183, ip=[fdbd:dccd:cdc2:12c8:0:204::])     (up_proj): Linear(in_features=4096, out_features=12288, bias=False)
(WorkerDict pid=25183, ip=[fdbd:dccd:cdc2:12c8:0:204::])     (down_proj): Linear(in_features=12288, out_features=4096, bias=False)
(WorkerDict pid=25183, ip=[fdbd:dccd:cdc2:12c8:0:204::])     (act_fn): SiLUActivation()
(WorkerDict pid=25183, ip=[fdbd:dccd:cdc2:12c8:0:204::])   )
(WorkerDict pid=25183, ip=[fdbd:dccd:cdc2:12c8:0:204::])   (input_layernorm): Qwen3RMSNorm((4096,), eps=1e-06)
(WorkerDict pid=25183, ip=[fdbd:dccd:cdc2:12c8:0:204::])   (post_attention_layernorm): Qwen3RMSNorm((4096,), eps=1e-06)
(WorkerDict pid=25183, ip=[fdbd:dccd:cdc2:12c8:0:204::]) ), {}), 'model.layers.19': (Qwen3DecoderLayer(
(WorkerDict pid=25183, ip=[fdbd:dccd:cdc2:12c8:0:204::])   (self_attn): Qwen3Attention(
(WorkerDict pid=25183, ip=[fdbd:dccd:cdc2:12c8:0:204::])     (q_proj): Linear(in_features=4096, out_features=4096, bias=False)
(WorkerDict pid=25183, ip=[fdbd:dccd:cdc2:12c8:0:204::])     (k_proj): Linear(in_features=4096, out_features=1024, bias=False)
(WorkerDict pid=25183, ip=[fdbd:dccd:cdc2:12c8:0:204::])     (v_proj): Linear(in_features=4096, out_features=1024, bias=False)
(WorkerDict pid=25183, ip=[fdbd:dccd:cdc2:12c8:0:204::])     (o_proj): Linear(in_features=4096, out_features=4096, bias=False)
(WorkerDict pid=25183, ip=[fdbd:dccd:cdc2:12c8:0:204::])     (q_norm): Qwen3RMSNorm((128,), eps=1e-06)
(WorkerDict pid=25183, ip=[fdbd:dccd:cdc2:12c8:0:204::])     (k_norm): Qwen3RMSNorm((128,), eps=1e-06)
(WorkerDict pid=25183, ip=[fdbd:dccd:cdc2:12c8:0:204::])   )
(WorkerDict pid=25183, ip=[fdbd:dccd:cdc2:12c8:0:204::])   (mlp): Qwen3MLP(
(WorkerDict pid=25183, ip=[fdbd:dccd:cdc2:12c8:0:204::])     (gate_proj): Linear(in_features=4096, out_features=12288, bias=False)
(WorkerDict pid=25183, ip=[fdbd:dccd:cdc2:12c8:0:204::])     (up_proj): Linear(in_features=4096, out_features=12288, bias=False)
(WorkerDict pid=25183, ip=[fdbd:dccd:cdc2:12c8:0:204::])     (down_proj): Linear(in_features=12288, out_features=4096, bias=False)
(WorkerDict pid=25183, ip=[fdbd:dccd:cdc2:12c8:0:204::])     (act_fn): SiLUActivation()
(WorkerDict pid=25183, ip=[fdbd:dccd:cdc2:12c8:0:204::])   )
(WorkerDict pid=25183, ip=[fdbd:dccd:cdc2:12c8:0:204::])   (input_layernorm): Qwen3RMSNorm((4096,), eps=1e-06)
(WorkerDict pid=25183, ip=[fdbd:dccd:cdc2:12c8:0:204::])   (post_attention_layernorm): Qwen3RMSNorm((4096,), eps=1e-06)
(WorkerDict pid=25183, ip=[fdbd:dccd:cdc2:12c8:0:204::]) ), {}), 'model.layers.20': (Qwen3DecoderLayer(
(WorkerDict pid=25183, ip=[fdbd:dccd:cdc2:12c8:0:204::])   (self_attn): Qwen3Attention(
(WorkerDict pid=25183, ip=[fdbd:dccd:cdc2:12c8:0:204::])     (q_proj): Linear(in_features=4096, out_features=4096, bias=False)
(WorkerDict pid=25183, ip=[fdbd:dccd:cdc2:12c8:0:204::])     (k_proj): Linear(in_features=4096, out_features=1024, bias=False)
(WorkerDict pid=25183, ip=[fdbd:dccd:cdc2:12c8:0:204::])     (v_proj): Linear(in_features=4096, out_features=1024, bias=False)
(WorkerDict pid=25183, ip=[fdbd:dccd:cdc2:12c8:0:204::])     (o_proj): Linear(in_features=4096, out_features=4096, bias=False)
(WorkerDict pid=25183, ip=[fdbd:dccd:cdc2:12c8:0:204::])     (q_norm): Qwen3RMSNorm((128,), eps=1e-06)
(WorkerDict pid=25183, ip=[fdbd:dccd:cdc2:12c8:0:204::])     (k_norm): Qwen3RMSNorm((128,), eps=1e-06)
(WorkerDict pid=25183, ip=[fdbd:dccd:cdc2:12c8:0:204::])   )
(WorkerDict pid=25183, ip=[fdbd:dccd:cdc2:12c8:0:204::])   (mlp): Qwen3MLP(
(WorkerDict pid=25183, ip=[fdbd:dccd:cdc2:12c8:0:204::])     (gate_proj): Linear(in_features=4096, out_features=12288, bias=False)
(WorkerDict pid=25183, ip=[fdbd:dccd:cdc2:12c8:0:204::])     (up_proj): Linear(in_features=4096, out_features=12288, bias=False)
(WorkerDict pid=25183, ip=[fdbd:dccd:cdc2:12c8:0:204::])     (down_proj): Linear(in_features=12288, out_features=4096, bias=False)
(WorkerDict pid=25183, ip=[fdbd:dccd:cdc2:12c8:0:204::])     (act_fn): SiLUActivation()
(WorkerDict pid=25183, ip=[fdbd:dccd:cdc2:12c8:0:204::])   )
(WorkerDict pid=25183, ip=[fdbd:dccd:cdc2:12c8:0:204::])   (input_layernorm): Qwen3RMSNorm((4096,), eps=1e-06)
(WorkerDict pid=25183, ip=[fdbd:dccd:cdc2:12c8:0:204::])   (post_attention_layernorm): Qwen3RMSNorm((4096,), eps=1e-06)
(WorkerDict pid=25183, ip=[fdbd:dccd:cdc2:12c8:0:204::]) ), {}), 'model.layers.21': (Qwen3DecoderLayer(
(WorkerDict pid=25183, ip=[fdbd:dccd:cdc2:12c8:0:204::])   (self_attn): Qwen3Attention(
(WorkerDict pid=25183, ip=[fdbd:dccd:cdc2:12c8:0:204::])     (q_proj): Linear(in_features=4096, out_features=4096, bias=False)
(WorkerDict pid=25183, ip=[fdbd:dccd:cdc2:12c8:0:204::])     (k_proj): Linear(in_features=4096, out_features=1024, bias=False)
(WorkerDict pid=25183, ip=[fdbd:dccd:cdc2:12c8:0:204::])     (v_proj): Linear(in_features=4096, out_features=1024, bias=False)
(WorkerDict pid=25183, ip=[fdbd:dccd:cdc2:12c8:0:204::])     (o_proj): Linear(in_features=4096, out_features=4096, bias=False)
(WorkerDict pid=25183, ip=[fdbd:dccd:cdc2:12c8:0:204::])     (q_norm): Qwen3RMSNorm((128,), eps=1e-06)
(WorkerDict pid=25183, ip=[fdbd:dccd:cdc2:12c8:0:204::])     (k_norm): Qwen3RMSNorm((128,), eps=1e-06)
(WorkerDict pid=25183, ip=[fdbd:dccd:cdc2:12c8:0:204::])   )
(WorkerDict pid=25183, ip=[fdbd:dccd:cdc2:12c8:0:204::])   (mlp): Qwen3MLP(
(WorkerDict pid=25183, ip=[fdbd:dccd:cdc2:12c8:0:204::])     (gate_proj): Linear(in_features=4096, out_features=12288, bias=False)
(WorkerDict pid=25183, ip=[fdbd:dccd:cdc2:12c8:0:204::])     (up_proj): Linear(in_features=4096, out_features=12288, bias=False)
(WorkerDict pid=25183, ip=[fdbd:dccd:cdc2:12c8:0:204::])     (down_proj): Linear(in_features=12288, out_features=4096, bias=False)
(WorkerDict pid=25183, ip=[fdbd:dccd:cdc2:12c8:0:204::])     (act_fn): SiLUActivation()
(WorkerDict pid=25183, ip=[fdbd:dccd:cdc2:12c8:0:204::])   )
(WorkerDict pid=25183, ip=[fdbd:dccd:cdc2:12c8:0:204::])   (input_layernorm): Qwen3RMSNorm((4096,), eps=1e-06)
(WorkerDict pid=25183, ip=[fdbd:dccd:cdc2:12c8:0:204::])   (post_attention_layernorm): Qwen3RMSNorm((4096,), eps=1e-06)
(WorkerDict pid=25183, ip=[fdbd:dccd:cdc2:12c8:0:204::]) ), {}), 'model.layers.22': (Qwen3DecoderLayer(
(WorkerDict pid=25183, ip=[fdbd:dccd:cdc2:12c8:0:204::])   (self_attn): Qwen3Attention(
(WorkerDict pid=25183, ip=[fdbd:dccd:cdc2:12c8:0:204::])     (q_proj): Linear(in_features=4096, out_features=4096, bias=False)
(WorkerDict pid=25183, ip=[fdbd:dccd:cdc2:12c8:0:204::])     (k_proj): Linear(in_features=4096, out_features=1024, bias=False)
(WorkerDict pid=25183, ip=[fdbd:dccd:cdc2:12c8:0:204::])     (v_proj): Linear(in_features=4096, out_features=1024, bias=False)
(WorkerDict pid=25183, ip=[fdbd:dccd:cdc2:12c8:0:204::])     (o_proj): Linear(in_features=4096, out_features=4096, bias=False)
(WorkerDict pid=25183, ip=[fdbd:dccd:cdc2:12c8:0:204::])     (q_norm): Qwen3RMSNorm((128,), eps=1e-06)
(WorkerDict pid=25183, ip=[fdbd:dccd:cdc2:12c8:0:204::])     (k_norm): Qwen3RMSNorm((128,), eps=1e-06)
(WorkerDict pid=25183, ip=[fdbd:dccd:cdc2:12c8:0:204::])   )
(WorkerDict pid=25183, ip=[fdbd:dccd:cdc2:12c8:0:204::])   (mlp): Qwen3MLP(
(WorkerDict pid=25183, ip=[fdbd:dccd:cdc2:12c8:0:204::])     (gate_proj): Linear(in_features=4096, out_features=12288, bias=False)
(WorkerDict pid=25183, ip=[fdbd:dccd:cdc2:12c8:0:204::])     (up_proj): Linear(in_features=4096, out_features=12288, bias=False)
(WorkerDict pid=25183, ip=[fdbd:dccd:cdc2:12c8:0:204::])     (down_proj): Linear(in_features=12288, out_features=4096, bias=False)
(WorkerDict pid=25183, ip=[fdbd:dccd:cdc2:12c8:0:204::])     (act_fn): SiLUActivation()
(WorkerDict pid=25183, ip=[fdbd:dccd:cdc2:12c8:0:204::])   )
(WorkerDict pid=25183, ip=[fdbd:dccd:cdc2:12c8:0:204::])   (input_layernorm): Qwen3RMSNorm((4096,), eps=1e-06)
(WorkerDict pid=25183, ip=[fdbd:dccd:cdc2:12c8:0:204::])   (post_attention_layernorm): Qwen3RMSNorm((4096,), eps=1e-06)
(WorkerDict pid=25183, ip=[fdbd:dccd:cdc2:12c8:0:204::]) ), {}), 'model.layers.23': (Qwen3DecoderLayer(
(WorkerDict pid=25183, ip=[fdbd:dccd:cdc2:12c8:0:204::])   (self_attn): Qwen3Attention(
(WorkerDict pid=25183, ip=[fdbd:dccd:cdc2:12c8:0:204::])     (q_proj): Linear(in_features=4096, out_features=4096, bias=False)
(WorkerDict pid=25183, ip=[fdbd:dccd:cdc2:12c8:0:204::])     (k_proj): Linear(in_features=4096, out_features=1024, bias=False)
(WorkerDict pid=25183, ip=[fdbd:dccd:cdc2:12c8:0:204::])     (v_proj): Linear(in_features=4096, out_features=1024, bias=False)
(WorkerDict pid=25183, ip=[fdbd:dccd:cdc2:12c8:0:204::])     (o_proj): Linear(in_features=4096, out_features=4096, bias=False)
(WorkerDict pid=25183, ip=[fdbd:dccd:cdc2:12c8:0:204::])     (q_norm): Qwen3RMSNorm((128,), eps=1e-06)
(WorkerDict pid=25183, ip=[fdbd:dccd:cdc2:12c8:0:204::])     (k_norm): Qwen3RMSNorm((128,), eps=1e-06)
(WorkerDict pid=25183, ip=[fdbd:dccd:cdc2:12c8:0:204::])   )
(WorkerDict pid=25183, ip=[fdbd:dccd:cdc2:12c8:0:204::])   (mlp): Qwen3MLP(
(WorkerDict pid=25183, ip=[fdbd:dccd:cdc2:12c8:0:204::])     (gate_proj): Linear(in_features=4096, out_features=12288, bias=False)
(WorkerDict pid=25183, ip=[fdbd:dccd:cdc2:12c8:0:204::])     (up_proj): Linear(in_features=4096, out_features=12288, bias=False)
(WorkerDict pid=25183, ip=[fdbd:dccd:cdc2:12c8:0:204::])     (down_proj): Linear(in_features=12288, out_features=4096, bias=False)
(WorkerDict pid=25183, ip=[fdbd:dccd:cdc2:12c8:0:204::])     (act_fn): SiLUActivation()
(WorkerDict pid=25183, ip=[fdbd:dccd:cdc2:12c8:0:204::])   )
(WorkerDict pid=25183, ip=[fdbd:dccd:cdc2:12c8:0:204::])   (input_layernorm): Qwen3RMSNorm((4096,), eps=1e-06)
(WorkerDict pid=25183, ip=[fdbd:dccd:cdc2:12c8:0:204::])   (post_attention_layernorm): Qwen3RMSNorm((4096,), eps=1e-06)
(WorkerDict pid=25183, ip=[fdbd:dccd:cdc2:12c8:0:204::]) ), {}), 'model.layers.24': (Qwen3DecoderLayer(
(WorkerDict pid=25183, ip=[fdbd:dccd:cdc2:12c8:0:204::])   (self_attn): Qwen3Attention(
(WorkerDict pid=25183, ip=[fdbd:dccd:cdc2:12c8:0:204::])     (q_proj): Linear(in_features=4096, out_features=4096, bias=False)
(WorkerDict pid=25183, ip=[fdbd:dccd:cdc2:12c8:0:204::])     (k_proj): Linear(in_features=4096, out_features=1024, bias=False)
(WorkerDict pid=25183, ip=[fdbd:dccd:cdc2:12c8:0:204::])     (v_proj): Linear(in_features=4096, out_features=1024, bias=False)
(WorkerDict pid=25183, ip=[fdbd:dccd:cdc2:12c8:0:204::])     (o_proj): Linear(in_features=4096, out_features=4096, bias=False)
(WorkerDict pid=25183, ip=[fdbd:dccd:cdc2:12c8:0:204::])     (q_norm): Qwen3RMSNorm((128,), eps=1e-06)
(WorkerDict pid=25183, ip=[fdbd:dccd:cdc2:12c8:0:204::])     (k_norm): Qwen3RMSNorm((128,), eps=1e-06)
(WorkerDict pid=25183, ip=[fdbd:dccd:cdc2:12c8:0:204::])   )
(WorkerDict pid=25183, ip=[fdbd:dccd:cdc2:12c8:0:204::])   (mlp): Qwen3MLP(
(WorkerDict pid=25183, ip=[fdbd:dccd:cdc2:12c8:0:204::])     (gate_proj): Linear(in_features=4096, out_features=12288, bias=False)
(WorkerDict pid=25183, ip=[fdbd:dccd:cdc2:12c8:0:204::])     (up_proj): Linear(in_features=4096, out_features=12288, bias=False)
(WorkerDict pid=25183, ip=[fdbd:dccd:cdc2:12c8:0:204::])     (down_proj): Linear(in_features=12288, out_features=4096, bias=False)
(WorkerDict pid=25183, ip=[fdbd:dccd:cdc2:12c8:0:204::])     (act_fn): SiLUActivation()
(WorkerDict pid=25183, ip=[fdbd:dccd:cdc2:12c8:0:204::])   )
(WorkerDict pid=25183, ip=[fdbd:dccd:cdc2:12c8:0:204::])   (input_layernorm): Qwen3RMSNorm((4096,), eps=1e-06)
(WorkerDict pid=25183, ip=[fdbd:dccd:cdc2:12c8:0:204::])   (post_attention_layernorm): Qwen3RMSNorm((4096,), eps=1e-06)
(WorkerDict pid=25183, ip=[fdbd:dccd:cdc2:12c8:0:204::]) ), {}), 'model.layers.25': (Qwen3DecoderLayer(
(WorkerDict pid=25183, ip=[fdbd:dccd:cdc2:12c8:0:204::])   (self_attn): Qwen3Attention(
(WorkerDict pid=25183, ip=[fdbd:dccd:cdc2:12c8:0:204::])     (q_proj): Linear(in_features=4096, out_features=4096, bias=False)
(WorkerDict pid=25183, ip=[fdbd:dccd:cdc2:12c8:0:204::])     (k_proj): Linear(in_features=4096, out_features=1024, bias=False)
(WorkerDict pid=25183, ip=[fdbd:dccd:cdc2:12c8:0:204::])     (v_proj): Linear(in_features=4096, out_features=1024, bias=False)
(WorkerDict pid=25183, ip=[fdbd:dccd:cdc2:12c8:0:204::])     (o_proj): Linear(in_features=4096, out_features=4096, bias=False)
(WorkerDict pid=25183, ip=[fdbd:dccd:cdc2:12c8:0:204::])     (q_norm): Qwen3RMSNorm((128,), eps=1e-06)
(WorkerDict pid=25183, ip=[fdbd:dccd:cdc2:12c8:0:204::])     (k_norm): Qwen3RMSNorm((128,), eps=1e-06)
(WorkerDict pid=25183, ip=[fdbd:dccd:cdc2:12c8:0:204::])   )
(WorkerDict pid=25183, ip=[fdbd:dccd:cdc2:12c8:0:204::])   (mlp): Qwen3MLP(
(WorkerDict pid=25183, ip=[fdbd:dccd:cdc2:12c8:0:204::])     (gate_proj): Linear(in_features=4096, out_features=12288, bias=False)
(WorkerDict pid=25183, ip=[fdbd:dccd:cdc2:12c8:0:204::])     (up_proj): Linear(in_features=4096, out_features=12288, bias=False)
(WorkerDict pid=25183, ip=[fdbd:dccd:cdc2:12c8:0:204::])     (down_proj): Linear(in_features=12288, out_features=4096, bias=False)
(WorkerDict pid=25183, ip=[fdbd:dccd:cdc2:12c8:0:204::])     (act_fn): SiLUActivation()
(WorkerDict pid=25183, ip=[fdbd:dccd:cdc2:12c8:0:204::])   )
(WorkerDict pid=25183, ip=[fdbd:dccd:cdc2:12c8:0:204::])   (input_layernorm): Qwen3RMSNorm((4096,), eps=1e-06)
(WorkerDict pid=25183, ip=[fdbd:dccd:cdc2:12c8:0:204::])   (post_attention_layernorm): Qwen3RMSNorm((4096,), eps=1e-06)
(WorkerDict pid=25183, ip=[fdbd:dccd:cdc2:12c8:0:204::]) ), {}), 'model.layers.26': (Qwen3DecoderLayer(
(WorkerDict pid=25183, ip=[fdbd:dccd:cdc2:12c8:0:204::])   (self_attn): Qwen3Attention(
(WorkerDict pid=25183, ip=[fdbd:dccd:cdc2:12c8:0:204::])     (q_proj): Linear(in_features=4096, out_features=4096, bias=False)
(WorkerDict pid=25183, ip=[fdbd:dccd:cdc2:12c8:0:204::])     (k_proj): Linear(in_features=4096, out_features=1024, bias=False)
(WorkerDict pid=25183, ip=[fdbd:dccd:cdc2:12c8:0:204::])     (v_proj): Linear(in_features=4096, out_features=1024, bias=False)
(WorkerDict pid=25183, ip=[fdbd:dccd:cdc2:12c8:0:204::])     (o_proj): Linear(in_features=4096, out_features=4096, bias=False)
(WorkerDict pid=25183, ip=[fdbd:dccd:cdc2:12c8:0:204::])     (q_norm): Qwen3RMSNorm((128,), eps=1e-06)
(WorkerDict pid=25183, ip=[fdbd:dccd:cdc2:12c8:0:204::])     (k_norm): Qwen3RMSNorm((128,), eps=1e-06)
(WorkerDict pid=25183, ip=[fdbd:dccd:cdc2:12c8:0:204::])   )
(WorkerDict pid=25183, ip=[fdbd:dccd:cdc2:12c8:0:204::])   (mlp): Qwen3MLP(
(WorkerDict pid=25183, ip=[fdbd:dccd:cdc2:12c8:0:204::])     (gate_proj): Linear(in_features=4096, out_features=12288, bias=False)
(WorkerDict pid=25183, ip=[fdbd:dccd:cdc2:12c8:0:204::])     (up_proj): Linear(in_features=4096, out_features=12288, bias=False)
(WorkerDict pid=25183, ip=[fdbd:dccd:cdc2:12c8:0:204::])     (down_proj): Linear(in_features=12288, out_features=4096, bias=False)
(WorkerDict pid=25183, ip=[fdbd:dccd:cdc2:12c8:0:204::])     (act_fn): SiLUActivation()
(WorkerDict pid=25183, ip=[fdbd:dccd:cdc2:12c8:0:204::])   )
(WorkerDict pid=25183, ip=[fdbd:dccd:cdc2:12c8:0:204::])   (input_layernorm): Qwen3RMSNorm((4096,), eps=1e-06)
(WorkerDict pid=25183, ip=[fdbd:dccd:cdc2:12c8:0:204::])   (post_attention_layernorm): Qwen3RMSNorm((4096,), eps=1e-06)
(WorkerDict pid=25183, ip=[fdbd:dccd:cdc2:12c8:0:204::]) ), {}), 'model.layers.27': (Qwen3DecoderLayer(
(WorkerDict pid=25183, ip=[fdbd:dccd:cdc2:12c8:0:204::])   (self_attn): Qwen3Attention(
(WorkerDict pid=25183, ip=[fdbd:dccd:cdc2:12c8:0:204::])     (q_proj): Linear(in_features=4096, out_features=4096, bias=False)
(WorkerDict pid=25183, ip=[fdbd:dccd:cdc2:12c8:0:204::])     (k_proj): Linear(in_features=4096, out_features=1024, bias=False)
(WorkerDict pid=25183, ip=[fdbd:dccd:cdc2:12c8:0:204::])     (v_proj): Linear(in_features=4096, out_features=1024, bias=False)
(WorkerDict pid=25183, ip=[fdbd:dccd:cdc2:12c8:0:204::])     (o_proj): Linear(in_features=4096, out_features=4096, bias=False)
(WorkerDict pid=25183, ip=[fdbd:dccd:cdc2:12c8:0:204::])     (q_norm): Qwen3RMSNorm((128,), eps=1e-06)
(WorkerDict pid=25183, ip=[fdbd:dccd:cdc2:12c8:0:204::])     (k_norm): Qwen3RMSNorm((128,), eps=1e-06)
(WorkerDict pid=25183, ip=[fdbd:dccd:cdc2:12c8:0:204::])   )
(WorkerDict pid=25183, ip=[fdbd:dccd:cdc2:12c8:0:204::])   (mlp): Qwen3MLP(
(WorkerDict pid=25183, ip=[fdbd:dccd:cdc2:12c8:0:204::])     (gate_proj): Linear(in_features=4096, out_features=12288, bias=False)
(WorkerDict pid=25183, ip=[fdbd:dccd:cdc2:12c8:0:204::])     (up_proj): Linear(in_features=4096, out_features=12288, bias=False)
(WorkerDict pid=25183, ip=[fdbd:dccd:cdc2:12c8:0:204::])     (down_proj): Linear(in_features=12288, out_features=4096, bias=False)
(WorkerDict pid=25183, ip=[fdbd:dccd:cdc2:12c8:0:204::])     (act_fn): SiLUActivation()
(WorkerDict pid=25183, ip=[fdbd:dccd:cdc2:12c8:0:204::])   )
(WorkerDict pid=25183, ip=[fdbd:dccd:cdc2:12c8:0:204::])   (input_layernorm): Qwen3RMSNorm((4096,), eps=1e-06)
(WorkerDict pid=25183, ip=[fdbd:dccd:cdc2:12c8:0:204::])   (post_attention_layernorm): Qwen3RMSNorm((4096,), eps=1e-06)
(WorkerDict pid=25183, ip=[fdbd:dccd:cdc2:12c8:0:204::]) ), {}), 'model.layers.28': (Qwen3DecoderLayer(
(WorkerDict pid=25183, ip=[fdbd:dccd:cdc2:12c8:0:204::])   (self_attn): Qwen3Attention(
(WorkerDict pid=25183, ip=[fdbd:dccd:cdc2:12c8:0:204::])     (q_proj): Linear(in_features=4096, out_features=4096, bias=False)
(WorkerDict pid=25183, ip=[fdbd:dccd:cdc2:12c8:0:204::])     (k_proj): Linear(in_features=4096, out_features=1024, bias=False)
(WorkerDict pid=25183, ip=[fdbd:dccd:cdc2:12c8:0:204::])     (v_proj): Linear(in_features=4096, out_features=1024, bias=False)
(WorkerDict pid=25183, ip=[fdbd:dccd:cdc2:12c8:0:204::])     (o_proj): Linear(in_features=4096, out_features=4096, bias=False)
(WorkerDict pid=25183, ip=[fdbd:dccd:cdc2:12c8:0:204::])     (q_norm): Qwen3RMSNorm((128,), eps=1e-06)
(WorkerDict pid=25183, ip=[fdbd:dccd:cdc2:12c8:0:204::])     (k_norm): Qwen3RMSNorm((128,), eps=1e-06)
(WorkerDict pid=25183, ip=[fdbd:dccd:cdc2:12c8:0:204::])   )
(WorkerDict pid=25183, ip=[fdbd:dccd:cdc2:12c8:0:204::])   (mlp): Qwen3MLP(
(WorkerDict pid=25183, ip=[fdbd:dccd:cdc2:12c8:0:204::])     (gate_proj): Linear(in_features=4096, out_features=12288, bias=False)
(WorkerDict pid=25183, ip=[fdbd:dccd:cdc2:12c8:0:204::])     (up_proj): Linear(in_features=4096, out_features=12288, bias=False)
(WorkerDict pid=25183, ip=[fdbd:dccd:cdc2:12c8:0:204::])     (down_proj): Linear(in_features=12288, out_features=4096, bias=False)
(WorkerDict pid=25183, ip=[fdbd:dccd:cdc2:12c8:0:204::])     (act_fn): SiLUActivation()
(WorkerDict pid=25183, ip=[fdbd:dccd:cdc2:12c8:0:204::])   )
(WorkerDict pid=25183, ip=[fdbd:dccd:cdc2:12c8:0:204::])   (input_layernorm): Qwen3RMSNorm((4096,), eps=1e-06)
(WorkerDict pid=25183, ip=[fdbd:dccd:cdc2:12c8:0:204::])   (post_attention_layernorm): Qwen3RMSNorm((4096,), eps=1e-06)
(WorkerDict pid=25183, ip=[fdbd:dccd:cdc2:12c8:0:204::]) ), {}), 'model.layers.29': (Qwen3DecoderLayer(
(WorkerDict pid=25183, ip=[fdbd:dccd:cdc2:12c8:0:204::])   (self_attn): Qwen3Attention(
(WorkerDict pid=25183, ip=[fdbd:dccd:cdc2:12c8:0:204::])     (q_proj): Linear(in_features=4096, out_features=4096, bias=False)
(WorkerDict pid=25183, ip=[fdbd:dccd:cdc2:12c8:0:204::])     (k_proj): Linear(in_features=4096, out_features=1024, bias=False)
(WorkerDict pid=25183, ip=[fdbd:dccd:cdc2:12c8:0:204::])     (v_proj): Linear(in_features=4096, out_features=1024, bias=False)
(WorkerDict pid=25183, ip=[fdbd:dccd:cdc2:12c8:0:204::])     (o_proj): Linear(in_features=4096, out_features=4096, bias=False)
(WorkerDict pid=25183, ip=[fdbd:dccd:cdc2:12c8:0:204::])     (q_norm): Qwen3RMSNorm((128,), eps=1e-06)
(WorkerDict pid=25183, ip=[fdbd:dccd:cdc2:12c8:0:204::])     (k_norm): Qwen3RMSNorm((128,), eps=1e-06)
(WorkerDict pid=25183, ip=[fdbd:dccd:cdc2:12c8:0:204::])   )
(WorkerDict pid=25183, ip=[fdbd:dccd:cdc2:12c8:0:204::])   (mlp): Qwen3MLP(
(WorkerDict pid=25183, ip=[fdbd:dccd:cdc2:12c8:0:204::])     (gate_proj): Linear(in_features=4096, out_features=12288, bias=False)
(WorkerDict pid=25183, ip=[fdbd:dccd:cdc2:12c8:0:204::])     (up_proj): Linear(in_features=4096, out_features=12288, bias=False)
(WorkerDict pid=25183, ip=[fdbd:dccd:cdc2:12c8:0:204::])     (down_proj): Linear(in_features=12288, out_features=4096, bias=False)
(WorkerDict pid=25183, ip=[fdbd:dccd:cdc2:12c8:0:204::])     (act_fn): SiLUActivation()
(WorkerDict pid=25183, ip=[fdbd:dccd:cdc2:12c8:0:204::])   )
(WorkerDict pid=25183, ip=[fdbd:dccd:cdc2:12c8:0:204::])   (input_layernorm): Qwen3RMSNorm((4096,), eps=1e-06)
(WorkerDict pid=25183, ip=[fdbd:dccd:cdc2:12c8:0:204::])   (post_attention_layernorm): Qwen3RMSNorm((4096,), eps=1e-06)
(WorkerDict pid=25183, ip=[fdbd:dccd:cdc2:12c8:0:204::]) ), {}), 'model.layers.30': (Qwen3DecoderLayer(
(WorkerDict pid=25183, ip=[fdbd:dccd:cdc2:12c8:0:204::])   (self_attn): Qwen3Attention(
(WorkerDict pid=25183, ip=[fdbd:dccd:cdc2:12c8:0:204::])     (q_proj): Linear(in_features=4096, out_features=4096, bias=False)
(WorkerDict pid=25183, ip=[fdbd:dccd:cdc2:12c8:0:204::])     (k_proj): Linear(in_features=4096, out_features=1024, bias=False)
(WorkerDict pid=25183, ip=[fdbd:dccd:cdc2:12c8:0:204::])     (v_proj): Linear(in_features=4096, out_features=1024, bias=False)
(WorkerDict pid=25183, ip=[fdbd:dccd:cdc2:12c8:0:204::])     (o_proj): Linear(in_features=4096, out_features=4096, bias=False)
(WorkerDict pid=25183, ip=[fdbd:dccd:cdc2:12c8:0:204::])     (q_norm): Qwen3RMSNorm((128,), eps=1e-06)
(WorkerDict pid=25183, ip=[fdbd:dccd:cdc2:12c8:0:204::])     (k_norm): Qwen3RMSNorm((128,), eps=1e-06)
(WorkerDict pid=25183, ip=[fdbd:dccd:cdc2:12c8:0:204::])   )
(WorkerDict pid=25183, ip=[fdbd:dccd:cdc2:12c8:0:204::])   (mlp): Qwen3MLP(
(WorkerDict pid=25183, ip=[fdbd:dccd:cdc2:12c8:0:204::])     (gate_proj): Linear(in_features=4096, out_features=12288, bias=False)
(WorkerDict pid=25183, ip=[fdbd:dccd:cdc2:12c8:0:204::])     (up_proj): Linear(in_features=4096, out_features=12288, bias=False)
(WorkerDict pid=25183, ip=[fdbd:dccd:cdc2:12c8:0:204::])     (down_proj): Linear(in_features=12288, out_features=4096, bias=False)
(WorkerDict pid=25183, ip=[fdbd:dccd:cdc2:12c8:0:204::])     (act_fn): SiLUActivation()
(WorkerDict pid=25183, ip=[fdbd:dccd:cdc2:12c8:0:204::])   )
(WorkerDict pid=25183, ip=[fdbd:dccd:cdc2:12c8:0:204::])   (input_layernorm): Qwen3RMSNorm((4096,), eps=1e-06)
(WorkerDict pid=25183, ip=[fdbd:dccd:cdc2:12c8:0:204::])   (post_attention_layernorm): Qwen3RMSNorm((4096,), eps=1e-06)
(WorkerDict pid=25183, ip=[fdbd:dccd:cdc2:12c8:0:204::]) ), {}), 'model.layers.31': (Qwen3DecoderLayer(
(WorkerDict pid=25183, ip=[fdbd:dccd:cdc2:12c8:0:204::])   (self_attn): Qwen3Attention(
(WorkerDict pid=25183, ip=[fdbd:dccd:cdc2:12c8:0:204::])     (q_proj): Linear(in_features=4096, out_features=4096, bias=False)
(WorkerDict pid=25183, ip=[fdbd:dccd:cdc2:12c8:0:204::])     (k_proj): Linear(in_features=4096, out_features=1024, bias=False)
(WorkerDict pid=25183, ip=[fdbd:dccd:cdc2:12c8:0:204::])     (v_proj): Linear(in_features=4096, out_features=1024, bias=False)
(WorkerDict pid=25183, ip=[fdbd:dccd:cdc2:12c8:0:204::])     (o_proj): Linear(in_features=4096, out_features=4096, bias=False)
(WorkerDict pid=25183, ip=[fdbd:dccd:cdc2:12c8:0:204::])     (q_norm): Qwen3RMSNorm((128,), eps=1e-06)
(WorkerDict pid=25183, ip=[fdbd:dccd:cdc2:12c8:0:204::])     (k_norm): Qwen3RMSNorm((128,), eps=1e-06)
(WorkerDict pid=25183, ip=[fdbd:dccd:cdc2:12c8:0:204::])   )
(WorkerDict pid=25183, ip=[fdbd:dccd:cdc2:12c8:0:204::])   (mlp): Qwen3MLP(
(WorkerDict pid=25183, ip=[fdbd:dccd:cdc2:12c8:0:204::])     (gate_proj): Linear(in_features=4096, out_features=12288, bias=False)
(WorkerDict pid=25183, ip=[fdbd:dccd:cdc2:12c8:0:204::])     (up_proj): Linear(in_features=4096, out_features=12288, bias=False)
(WorkerDict pid=25183, ip=[fdbd:dccd:cdc2:12c8:0:204::])     (down_proj): Linear(in_features=12288, out_features=4096, bias=False)
(WorkerDict pid=25183, ip=[fdbd:dccd:cdc2:12c8:0:204::])     (act_fn): SiLUActivation()
(WorkerDict pid=25183, ip=[fdbd:dccd:cdc2:12c8:0:204::])   )
(WorkerDict pid=25183, ip=[fdbd:dccd:cdc2:12c8:0:204::])   (input_layernorm): Qwen3RMSNorm((4096,), eps=1e-06)
(WorkerDict pid=25183, ip=[fdbd:dccd:cdc2:12c8:0:204::])   (post_attention_layernorm): Qwen3RMSNorm((4096,), eps=1e-06)
(WorkerDict pid=25183, ip=[fdbd:dccd:cdc2:12c8:0:204::]) ), {}), 'model.layers.32': (Qwen3DecoderLayer(
(WorkerDict pid=25183, ip=[fdbd:dccd:cdc2:12c8:0:204::])   (self_attn): Qwen3Attention(
(WorkerDict pid=25183, ip=[fdbd:dccd:cdc2:12c8:0:204::])     (q_proj): Linear(in_features=4096, out_features=4096, bias=False)
(WorkerDict pid=25183, ip=[fdbd:dccd:cdc2:12c8:0:204::])     (k_proj): Linear(in_features=4096, out_features=1024, bias=False)
(WorkerDict pid=25183, ip=[fdbd:dccd:cdc2:12c8:0:204::])     (v_proj): Linear(in_features=4096, out_features=1024, bias=False)
(WorkerDict pid=25183, ip=[fdbd:dccd:cdc2:12c8:0:204::])     (o_proj): Linear(in_features=4096, out_features=4096, bias=False)
(WorkerDict pid=25183, ip=[fdbd:dccd:cdc2:12c8:0:204::])     (q_norm): Qwen3RMSNorm((128,), eps=1e-06)
(WorkerDict pid=25183, ip=[fdbd:dccd:cdc2:12c8:0:204::])     (k_norm): Qwen3RMSNorm((128,), eps=1e-06)
(WorkerDict pid=25183, ip=[fdbd:dccd:cdc2:12c8:0:204::])   )
(WorkerDict pid=25183, ip=[fdbd:dccd:cdc2:12c8:0:204::])   (mlp): Qwen3MLP(
(WorkerDict pid=25183, ip=[fdbd:dccd:cdc2:12c8:0:204::])     (gate_proj): Linear(in_features=4096, out_features=12288, bias=False)
(WorkerDict pid=25183, ip=[fdbd:dccd:cdc2:12c8:0:204::])     (up_proj): Linear(in_features=4096, out_features=12288, bias=False)
(WorkerDict pid=25183, ip=[fdbd:dccd:cdc2:12c8:0:204::])     (down_proj): Linear(in_features=12288, out_features=4096, bias=False)
(WorkerDict pid=25183, ip=[fdbd:dccd:cdc2:12c8:0:204::])     (act_fn): SiLUActivation()
(WorkerDict pid=25183, ip=[fdbd:dccd:cdc2:12c8:0:204::])   )
(WorkerDict pid=25183, ip=[fdbd:dccd:cdc2:12c8:0:204::])   (input_layernorm): Qwen3RMSNorm((4096,), eps=1e-06)
(WorkerDict pid=25183, ip=[fdbd:dccd:cdc2:12c8:0:204::])   (post_attention_layernorm): Qwen3RMSNorm((4096,), eps=1e-06)
(WorkerDict pid=25183, ip=[fdbd:dccd:cdc2:12c8:0:204::]) ), {}), 'model.layers.33': (Qwen3DecoderLayer(
(WorkerDict pid=25183, ip=[fdbd:dccd:cdc2:12c8:0:204::])   (self_attn): Qwen3Attention(
(WorkerDict pid=25183, ip=[fdbd:dccd:cdc2:12c8:0:204::])     (q_proj): Linear(in_features=4096, out_features=4096, bias=False)
(WorkerDict pid=25183, ip=[fdbd:dccd:cdc2:12c8:0:204::])     (k_proj): Linear(in_features=4096, out_features=1024, bias=False)
(WorkerDict pid=25183, ip=[fdbd:dccd:cdc2:12c8:0:204::])     (v_proj): Linear(in_features=4096, out_features=1024, bias=False)
(WorkerDict pid=25183, ip=[fdbd:dccd:cdc2:12c8:0:204::])     (o_proj): Linear(in_features=4096, out_features=4096, bias=False)
(WorkerDict pid=25183, ip=[fdbd:dccd:cdc2:12c8:0:204::])     (q_norm): Qwen3RMSNorm((128,), eps=1e-06)
(WorkerDict pid=25183, ip=[fdbd:dccd:cdc2:12c8:0:204::])     (k_norm): Qwen3RMSNorm((128,), eps=1e-06)
(WorkerDict pid=25183, ip=[fdbd:dccd:cdc2:12c8:0:204::])   )
(WorkerDict pid=25183, ip=[fdbd:dccd:cdc2:12c8:0:204::])   (mlp): Qwen3MLP(
(WorkerDict pid=25183, ip=[fdbd:dccd:cdc2:12c8:0:204::])     (gate_proj): Linear(in_features=4096, out_features=12288, bias=False)
(WorkerDict pid=25183, ip=[fdbd:dccd:cdc2:12c8:0:204::])     (up_proj): Linear(in_features=4096, out_features=12288, bias=False)
(WorkerDict pid=25183, ip=[fdbd:dccd:cdc2:12c8:0:204::])     (down_proj): Linear(in_features=12288, out_features=4096, bias=False)
(WorkerDict pid=25183, ip=[fdbd:dccd:cdc2:12c8:0:204::])     (act_fn): SiLUActivation()
(WorkerDict pid=25183, ip=[fdbd:dccd:cdc2:12c8:0:204::])   )
(WorkerDict pid=25183, ip=[fdbd:dccd:cdc2:12c8:0:204::])   (input_layernorm): Qwen3RMSNorm((4096,), eps=1e-06)
(WorkerDict pid=25183, ip=[fdbd:dccd:cdc2:12c8:0:204::])   (post_attention_layernorm): Qwen3RMSNorm((4096,), eps=1e-06)
(WorkerDict pid=25183, ip=[fdbd:dccd:cdc2:12c8:0:204::]) ), {}), 'model.layers.34': (Qwen3DecoderLayer(
(WorkerDict pid=25183, ip=[fdbd:dccd:cdc2:12c8:0:204::])   (self_attn): Qwen3Attention(
(WorkerDict pid=25183, ip=[fdbd:dccd:cdc2:12c8:0:204::])     (q_proj): Linear(in_features=4096, out_features=4096, bias=False)
(WorkerDict pid=25183, ip=[fdbd:dccd:cdc2:12c8:0:204::])     (k_proj): Linear(in_features=4096, out_features=1024, bias=False)
(WorkerDict pid=25183, ip=[fdbd:dccd:cdc2:12c8:0:204::])     (v_proj): Linear(in_features=4096, out_features=1024, bias=False)
(WorkerDict pid=25183, ip=[fdbd:dccd:cdc2:12c8:0:204::])     (o_proj): Linear(in_features=4096, out_features=4096, bias=False)
(WorkerDict pid=25183, ip=[fdbd:dccd:cdc2:12c8:0:204::])     (q_norm): Qwen3RMSNorm((128,), eps=1e-06)
(WorkerDict pid=25183, ip=[fdbd:dccd:cdc2:12c8:0:204::])     (k_norm): Qwen3RMSNorm((128,), eps=1e-06)
(WorkerDict pid=25183, ip=[fdbd:dccd:cdc2:12c8:0:204::])   )
(WorkerDict pid=25183, ip=[fdbd:dccd:cdc2:12c8:0:204::])   (mlp): Qwen3MLP(
(WorkerDict pid=25183, ip=[fdbd:dccd:cdc2:12c8:0:204::])     (gate_proj): Linear(in_features=4096, out_features=12288, bias=False)
(WorkerDict pid=25183, ip=[fdbd:dccd:cdc2:12c8:0:204::])     (up_proj): Linear(in_features=4096, out_features=12288, bias=False)
(WorkerDict pid=25183, ip=[fdbd:dccd:cdc2:12c8:0:204::])     (down_proj): Linear(in_features=12288, out_features=4096, bias=False)
(WorkerDict pid=25183, ip=[fdbd:dccd:cdc2:12c8:0:204::])     (act_fn): SiLUActivation()
(WorkerDict pid=25183, ip=[fdbd:dccd:cdc2:12c8:0:204::])   )
(WorkerDict pid=25183, ip=[fdbd:dccd:cdc2:12c8:0:204::])   (input_layernorm): Qwen3RMSNorm((4096,), eps=1e-06)
(WorkerDict pid=25183, ip=[fdbd:dccd:cdc2:12c8:0:204::])   (post_attention_layernorm): Qwen3RMSNorm((4096,), eps=1e-06)
(WorkerDict pid=25183, ip=[fdbd:dccd:cdc2:12c8:0:204::]) ), {}), 'model.layers.35': (Qwen3DecoderLayer(
(WorkerDict pid=25183, ip=[fdbd:dccd:cdc2:12c8:0:204::])   (self_attn): Qwen3Attention(
(WorkerDict pid=25183, ip=[fdbd:dccd:cdc2:12c8:0:204::])     (q_proj): Linear(in_features=4096, out_features=4096, bias=False)
(WorkerDict pid=25183, ip=[fdbd:dccd:cdc2:12c8:0:204::])     (k_proj): Linear(in_features=4096, out_features=1024, bias=False)
(WorkerDict pid=25183, ip=[fdbd:dccd:cdc2:12c8:0:204::])     (v_proj): Linear(in_features=4096, out_features=1024, bias=False)
(WorkerDict pid=25183, ip=[fdbd:dccd:cdc2:12c8:0:204::])     (o_proj): Linear(in_features=4096, out_features=4096, bias=False)
(WorkerDict pid=25183, ip=[fdbd:dccd:cdc2:12c8:0:204::])     (q_norm): Qwen3RMSNorm((128,), eps=1e-06)
(WorkerDict pid=25183, ip=[fdbd:dccd:cdc2:12c8:0:204::])     (k_norm): Qwen3RMSNorm((128,), eps=1e-06)
(WorkerDict pid=25183, ip=[fdbd:dccd:cdc2:12c8:0:204::])   )
(WorkerDict pid=25183, ip=[fdbd:dccd:cdc2:12c8:0:204::])   (mlp): Qwen3MLP(
(WorkerDict pid=25183, ip=[fdbd:dccd:cdc2:12c8:0:204::])     (gate_proj): Linear(in_features=4096, out_features=12288, bias=False)
(WorkerDict pid=25183, ip=[fdbd:dccd:cdc2:12c8:0:204::])     (up_proj): Linear(in_features=4096, out_features=12288, bias=False)
(WorkerDict pid=25183, ip=[fdbd:dccd:cdc2:12c8:0:204::])     (down_proj): Linear(in_features=12288, out_features=4096, bias=False)
(WorkerDict pid=25183, ip=[fdbd:dccd:cdc2:12c8:0:204::])     (act_fn): SiLUActivation()
(WorkerDict pid=25183, ip=[fdbd:dccd:cdc2:12c8:0:204::])   )
(WorkerDict pid=25183, ip=[fdbd:dccd:cdc2:12c8:0:204::])   (input_layernorm): Qwen3RMSNorm((4096,), eps=1e-06)
(WorkerDict pid=25183, ip=[fdbd:dccd:cdc2:12c8:0:204::])   (post_attention_layernorm): Qwen3RMSNorm((4096,), eps=1e-06)
(WorkerDict pid=25183, ip=[fdbd:dccd:cdc2:12c8:0:204::]) ), {})}
(WorkerDict pid=25183, ip=[fdbd:dccd:cdc2:12c8:0:204::])   (self_attn): Qwen3Attention(
(WorkerDict pid=25183, ip=[fdbd:dccd:cdc2:12c8:0:204::])     (q_proj): Linear(in_features=4096, out_features=4096, bias=False)
(WorkerDict pid=25183, ip=[fdbd:dccd:cdc2:12c8:0:204::])     (k_proj): Linear(in_features=4096, out_features=1024, bias=False)
(WorkerDict pid=25183, ip=[fdbd:dccd:cdc2:12c8:0:204::])     (v_proj): Linear(in_features=4096, out_features=1024, bias=False)
(WorkerDict pid=25183, ip=[fdbd:dccd:cdc2:12c8:0:204::])     (o_proj): Linear(in_features=4096, out_features=4096, bias=False)
(WorkerDict pid=25183, ip=[fdbd:dccd:cdc2:12c8:0:204::])     (q_norm): Qwen3RMSNorm((128,), eps=1e-06)
(WorkerDict pid=25183, ip=[fdbd:dccd:cdc2:12c8:0:204::])     (k_norm): Qwen3RMSNorm((128,), eps=1e-06)
(WorkerDict pid=25183, ip=[fdbd:dccd:cdc2:12c8:0:204::])   )
(WorkerDict pid=25183, ip=[fdbd:dccd:cdc2:12c8:0:204::])   (mlp): Qwen3MLP(
(WorkerDict pid=25183, ip=[fdbd:dccd:cdc2:12c8:0:204::])     (gate_proj): Linear(in_features=4096, out_features=12288, bias=False)
(WorkerDict pid=25183, ip=[fdbd:dccd:cdc2:12c8:0:204::])     (up_proj): Linear(in_features=4096, out_features=12288, bias=False)
(WorkerDict pid=25183, ip=[fdbd:dccd:cdc2:12c8:0:204::])     (down_proj): Linear(in_features=12288, out_features=4096, bias=False)
(WorkerDict pid=25183, ip=[fdbd:dccd:cdc2:12c8:0:204::])     (act_fn): SiLUActivation()
(WorkerDict pid=25183, ip=[fdbd:dccd:cdc2:12c8:0:204::])   )
(WorkerDict pid=25183, ip=[fdbd:dccd:cdc2:12c8:0:204::])   (input_layernorm): Qwen3RMSNorm((4096,), eps=1e-06)
(WorkerDict pid=25183, ip=[fdbd:dccd:cdc2:12c8:0:204::])   (post_attention_layernorm): Qwen3RMSNorm((4096,), eps=1e-06)
(WorkerDict pid=25183, ip=[fdbd:dccd:cdc2:12c8:0:204::]) )]
(WorkerDict pid=25183, ip=[fdbd:dccd:cdc2:12c8:0:204::])   (self_attn): Qwen3Attention(
(WorkerDict pid=25183, ip=[fdbd:dccd:cdc2:12c8:0:204::])     (q_proj): Linear(in_features=4096, out_features=4096, bias=False)
(WorkerDict pid=25183, ip=[fdbd:dccd:cdc2:12c8:0:204::])     (k_proj): Linear(in_features=4096, out_features=1024, bias=False)
(WorkerDict pid=25183, ip=[fdbd:dccd:cdc2:12c8:0:204::])     (v_proj): Linear(in_features=4096, out_features=1024, bias=False)
(WorkerDict pid=25183, ip=[fdbd:dccd:cdc2:12c8:0:204::])     (o_proj): Linear(in_features=4096, out_features=4096, bias=False)
(WorkerDict pid=25183, ip=[fdbd:dccd:cdc2:12c8:0:204::])     (q_norm): Qwen3RMSNorm((128,), eps=1e-06)
(WorkerDict pid=25183, ip=[fdbd:dccd:cdc2:12c8:0:204::])     (k_norm): Qwen3RMSNorm((128,), eps=1e-06)
(WorkerDict pid=25183, ip=[fdbd:dccd:cdc2:12c8:0:204::])   )
(WorkerDict pid=25183, ip=[fdbd:dccd:cdc2:12c8:0:204::])   (mlp): Qwen3MLP(
(WorkerDict pid=25183, ip=[fdbd:dccd:cdc2:12c8:0:204::])     (gate_proj): Linear(in_features=4096, out_features=12288, bias=False)
(WorkerDict pid=25183, ip=[fdbd:dccd:cdc2:12c8:0:204::])     (up_proj): Linear(in_features=4096, out_features=12288, bias=False)
(WorkerDict pid=25183, ip=[fdbd:dccd:cdc2:12c8:0:204::])     (down_proj): Linear(in_features=12288, out_features=4096, bias=False)
(WorkerDict pid=25183, ip=[fdbd:dccd:cdc2:12c8:0:204::])     (act_fn): SiLUActivation()
(WorkerDict pid=25183, ip=[fdbd:dccd:cdc2:12c8:0:204::])   )
(WorkerDict pid=25183, ip=[fdbd:dccd:cdc2:12c8:0:204::])   (input_layernorm): Qwen3RMSNorm((4096,), eps=1e-06)
(WorkerDict pid=25183, ip=[fdbd:dccd:cdc2:12c8:0:204::])   (post_attention_layernorm): Qwen3RMSNorm((4096,), eps=1e-06)
(WorkerDict pid=25183, ip=[fdbd:dccd:cdc2:12c8:0:204::]) )]
(WorkerDict pid=25183, ip=[fdbd:dccd:cdc2:12c8:0:204::])   (self_attn): Qwen3Attention(
(WorkerDict pid=25183, ip=[fdbd:dccd:cdc2:12c8:0:204::])     (q_proj): Linear(in_features=4096, out_features=4096, bias=False)
(WorkerDict pid=25183, ip=[fdbd:dccd:cdc2:12c8:0:204::])     (k_proj): Linear(in_features=4096, out_features=1024, bias=False)
(WorkerDict pid=25183, ip=[fdbd:dccd:cdc2:12c8:0:204::])     (v_proj): Linear(in_features=4096, out_features=1024, bias=False)
(WorkerDict pid=25183, ip=[fdbd:dccd:cdc2:12c8:0:204::])     (o_proj): Linear(in_features=4096, out_features=4096, bias=False)
(WorkerDict pid=25183, ip=[fdbd:dccd:cdc2:12c8:0:204::])     (q_norm): Qwen3RMSNorm((128,), eps=1e-06)
(WorkerDict pid=25183, ip=[fdbd:dccd:cdc2:12c8:0:204::])     (k_norm): Qwen3RMSNorm((128,), eps=1e-06)
(WorkerDict pid=25183, ip=[fdbd:dccd:cdc2:12c8:0:204::])   )
(WorkerDict pid=25183, ip=[fdbd:dccd:cdc2:12c8:0:204::])   (mlp): Qwen3MLP(
(WorkerDict pid=25183, ip=[fdbd:dccd:cdc2:12c8:0:204::])     (gate_proj): Linear(in_features=4096, out_features=12288, bias=False)
(WorkerDict pid=25183, ip=[fdbd:dccd:cdc2:12c8:0:204::])     (up_proj): Linear(in_features=4096, out_features=12288, bias=False)
(WorkerDict pid=25183, ip=[fdbd:dccd:cdc2:12c8:0:204::])     (down_proj): Linear(in_features=12288, out_features=4096, bias=False)
(WorkerDict pid=25183, ip=[fdbd:dccd:cdc2:12c8:0:204::])     (act_fn): SiLUActivation()
(WorkerDict pid=25183, ip=[fdbd:dccd:cdc2:12c8:0:204::])   )
(WorkerDict pid=25183, ip=[fdbd:dccd:cdc2:12c8:0:204::])   (input_layernorm): Qwen3RMSNorm((4096,), eps=1e-06)
(WorkerDict pid=25183, ip=[fdbd:dccd:cdc2:12c8:0:204::])   (post_attention_layernorm): Qwen3RMSNorm((4096,), eps=1e-06)
(WorkerDict pid=25183, ip=[fdbd:dccd:cdc2:12c8:0:204::]) )]
(WorkerDict pid=25183, ip=[fdbd:dccd:cdc2:12c8:0:204::])   (self_attn): Qwen3Attention(
(WorkerDict pid=25183, ip=[fdbd:dccd:cdc2:12c8:0:204::])     (q_proj): Linear(in_features=4096, out_features=4096, bias=False)
(WorkerDict pid=25183, ip=[fdbd:dccd:cdc2:12c8:0:204::])     (k_proj): Linear(in_features=4096, out_features=1024, bias=False)
(WorkerDict pid=25183, ip=[fdbd:dccd:cdc2:12c8:0:204::])     (v_proj): Linear(in_features=4096, out_features=1024, bias=False)
(WorkerDict pid=25183, ip=[fdbd:dccd:cdc2:12c8:0:204::])     (o_proj): Linear(in_features=4096, out_features=4096, bias=False)
(WorkerDict pid=25183, ip=[fdbd:dccd:cdc2:12c8:0:204::])     (q_norm): Qwen3RMSNorm((128,), eps=1e-06)
(WorkerDict pid=25183, ip=[fdbd:dccd:cdc2:12c8:0:204::])     (k_norm): Qwen3RMSNorm((128,), eps=1e-06)
(WorkerDict pid=25183, ip=[fdbd:dccd:cdc2:12c8:0:204::])   )
(WorkerDict pid=25183, ip=[fdbd:dccd:cdc2:12c8:0:204::])   (mlp): Qwen3MLP(
(WorkerDict pid=25183, ip=[fdbd:dccd:cdc2:12c8:0:204::])     (gate_proj): Linear(in_features=4096, out_features=12288, bias=False)
(WorkerDict pid=25183, ip=[fdbd:dccd:cdc2:12c8:0:204::])     (up_proj): Linear(in_features=4096, out_features=12288, bias=False)
(WorkerDict pid=25183, ip=[fdbd:dccd:cdc2:12c8:0:204::])     (down_proj): Linear(in_features=12288, out_features=4096, bias=False)
(WorkerDict pid=25183, ip=[fdbd:dccd:cdc2:12c8:0:204::])     (act_fn): SiLUActivation()
(WorkerDict pid=25183, ip=[fdbd:dccd:cdc2:12c8:0:204::])   )
(WorkerDict pid=25183, ip=[fdbd:dccd:cdc2:12c8:0:204::])   (input_layernorm): Qwen3RMSNorm((4096,), eps=1e-06)
(WorkerDict pid=25183, ip=[fdbd:dccd:cdc2:12c8:0:204::])   (post_attention_layernorm): Qwen3RMSNorm((4096,), eps=1e-06)
(WorkerDict pid=25183, ip=[fdbd:dccd:cdc2:12c8:0:204::]) )]
(WorkerDict pid=25183, ip=[fdbd:dccd:cdc2:12c8:0:204::])   (self_attn): Qwen3Attention(
(WorkerDict pid=25183, ip=[fdbd:dccd:cdc2:12c8:0:204::])     (q_proj): Linear(in_features=4096, out_features=4096, bias=False)
(WorkerDict pid=25183, ip=[fdbd:dccd:cdc2:12c8:0:204::])     (k_proj): Linear(in_features=4096, out_features=1024, bias=False)
(WorkerDict pid=25183, ip=[fdbd:dccd:cdc2:12c8:0:204::])     (v_proj): Linear(in_features=4096, out_features=1024, bias=False)
(WorkerDict pid=25183, ip=[fdbd:dccd:cdc2:12c8:0:204::])     (o_proj): Linear(in_features=4096, out_features=4096, bias=False)
(WorkerDict pid=25183, ip=[fdbd:dccd:cdc2:12c8:0:204::])     (q_norm): Qwen3RMSNorm((128,), eps=1e-06)
(WorkerDict pid=25183, ip=[fdbd:dccd:cdc2:12c8:0:204::])     (k_norm): Qwen3RMSNorm((128,), eps=1e-06)
(WorkerDict pid=25183, ip=[fdbd:dccd:cdc2:12c8:0:204::])   )
(WorkerDict pid=25183, ip=[fdbd:dccd:cdc2:12c8:0:204::])   (mlp): Qwen3MLP(
(WorkerDict pid=25183, ip=[fdbd:dccd:cdc2:12c8:0:204::])     (gate_proj): Linear(in_features=4096, out_features=12288, bias=False)
(WorkerDict pid=25183, ip=[fdbd:dccd:cdc2:12c8:0:204::])     (up_proj): Linear(in_features=4096, out_features=12288, bias=False)
(WorkerDict pid=25183, ip=[fdbd:dccd:cdc2:12c8:0:204::])     (down_proj): Linear(in_features=12288, out_features=4096, bias=False)
(WorkerDict pid=25183, ip=[fdbd:dccd:cdc2:12c8:0:204::])     (act_fn): SiLUActivation()
(WorkerDict pid=25183, ip=[fdbd:dccd:cdc2:12c8:0:204::])   )
(WorkerDict pid=25183, ip=[fdbd:dccd:cdc2:12c8:0:204::])   (input_layernorm): Qwen3RMSNorm((4096,), eps=1e-06)
(WorkerDict pid=25183, ip=[fdbd:dccd:cdc2:12c8:0:204::])   (post_attention_layernorm): Qwen3RMSNorm((4096,), eps=1e-06)
(WorkerDict pid=25183, ip=[fdbd:dccd:cdc2:12c8:0:204::]) )]
(WorkerDict pid=25183, ip=[fdbd:dccd:cdc2:12c8:0:204::])   (self_attn): Qwen3Attention(
(WorkerDict pid=25183, ip=[fdbd:dccd:cdc2:12c8:0:204::])     (q_proj): Linear(in_features=4096, out_features=4096, bias=False)
(WorkerDict pid=25183, ip=[fdbd:dccd:cdc2:12c8:0:204::])     (k_proj): Linear(in_features=4096, out_features=1024, bias=False)
(WorkerDict pid=25183, ip=[fdbd:dccd:cdc2:12c8:0:204::])     (v_proj): Linear(in_features=4096, out_features=1024, bias=False)
(WorkerDict pid=25183, ip=[fdbd:dccd:cdc2:12c8:0:204::])     (o_proj): Linear(in_features=4096, out_features=4096, bias=False)
(WorkerDict pid=25183, ip=[fdbd:dccd:cdc2:12c8:0:204::])     (q_norm): Qwen3RMSNorm((128,), eps=1e-06)
(WorkerDict pid=25183, ip=[fdbd:dccd:cdc2:12c8:0:204::])     (k_norm): Qwen3RMSNorm((128,), eps=1e-06)
(WorkerDict pid=25183, ip=[fdbd:dccd:cdc2:12c8:0:204::])   )
(WorkerDict pid=25183, ip=[fdbd:dccd:cdc2:12c8:0:204::])   (mlp): Qwen3MLP(
(WorkerDict pid=25183, ip=[fdbd:dccd:cdc2:12c8:0:204::])     (gate_proj): Linear(in_features=4096, out_features=12288, bias=False)
(WorkerDict pid=25183, ip=[fdbd:dccd:cdc2:12c8:0:204::])     (up_proj): Linear(in_features=4096, out_features=12288, bias=False)
(WorkerDict pid=25183, ip=[fdbd:dccd:cdc2:12c8:0:204::])     (down_proj): Linear(in_features=12288, out_features=4096, bias=False)
(WorkerDict pid=25183, ip=[fdbd:dccd:cdc2:12c8:0:204::])     (act_fn): SiLUActivation()
(WorkerDict pid=25183, ip=[fdbd:dccd:cdc2:12c8:0:204::])   )
(WorkerDict pid=25183, ip=[fdbd:dccd:cdc2:12c8:0:204::])   (input_layernorm): Qwen3RMSNorm((4096,), eps=1e-06)
(WorkerDict pid=25183, ip=[fdbd:dccd:cdc2:12c8:0:204::])   (post_attention_layernorm): Qwen3RMSNorm((4096,), eps=1e-06)
(WorkerDict pid=25183, ip=[fdbd:dccd:cdc2:12c8:0:204::]) )]
(WorkerDict pid=25183, ip=[fdbd:dccd:cdc2:12c8:0:204::])   (self_attn): Qwen3Attention(
(WorkerDict pid=25183, ip=[fdbd:dccd:cdc2:12c8:0:204::])     (q_proj): Linear(in_features=4096, out_features=4096, bias=False)
(WorkerDict pid=25183, ip=[fdbd:dccd:cdc2:12c8:0:204::])     (k_proj): Linear(in_features=4096, out_features=1024, bias=False)
(WorkerDict pid=25183, ip=[fdbd:dccd:cdc2:12c8:0:204::])     (v_proj): Linear(in_features=4096, out_features=1024, bias=False)
(WorkerDict pid=25183, ip=[fdbd:dccd:cdc2:12c8:0:204::])     (o_proj): Linear(in_features=4096, out_features=4096, bias=False)
(WorkerDict pid=25183, ip=[fdbd:dccd:cdc2:12c8:0:204::])     (q_norm): Qwen3RMSNorm((128,), eps=1e-06)
(WorkerDict pid=25183, ip=[fdbd:dccd:cdc2:12c8:0:204::])     (k_norm): Qwen3RMSNorm((128,), eps=1e-06)
(WorkerDict pid=25183, ip=[fdbd:dccd:cdc2:12c8:0:204::])   )
(WorkerDict pid=25183, ip=[fdbd:dccd:cdc2:12c8:0:204::])   (mlp): Qwen3MLP(
(WorkerDict pid=25183, ip=[fdbd:dccd:cdc2:12c8:0:204::])     (gate_proj): Linear(in_features=4096, out_features=12288, bias=False)
(WorkerDict pid=25183, ip=[fdbd:dccd:cdc2:12c8:0:204::])     (up_proj): Linear(in_features=4096, out_features=12288, bias=False)
(WorkerDict pid=25183, ip=[fdbd:dccd:cdc2:12c8:0:204::])     (down_proj): Linear(in_features=12288, out_features=4096, bias=False)
(WorkerDict pid=25183, ip=[fdbd:dccd:cdc2:12c8:0:204::])     (act_fn): SiLUActivation()
(WorkerDict pid=25183, ip=[fdbd:dccd:cdc2:12c8:0:204::])   )
(WorkerDict pid=25183, ip=[fdbd:dccd:cdc2:12c8:0:204::])   (input_layernorm): Qwen3RMSNorm((4096,), eps=1e-06)
(WorkerDict pid=25183, ip=[fdbd:dccd:cdc2:12c8:0:204::])   (post_attention_layernorm): Qwen3RMSNorm((4096,), eps=1e-06)
(WorkerDict pid=25183, ip=[fdbd:dccd:cdc2:12c8:0:204::]) )]
(WorkerDict pid=25183, ip=[fdbd:dccd:cdc2:12c8:0:204::])   (self_attn): Qwen3Attention(
(WorkerDict pid=25183, ip=[fdbd:dccd:cdc2:12c8:0:204::])     (q_proj): Linear(in_features=4096, out_features=4096, bias=False)
(WorkerDict pid=25183, ip=[fdbd:dccd:cdc2:12c8:0:204::])     (k_proj): Linear(in_features=4096, out_features=1024, bias=False)
(WorkerDict pid=25183, ip=[fdbd:dccd:cdc2:12c8:0:204::])     (v_proj): Linear(in_features=4096, out_features=1024, bias=False)
(WorkerDict pid=25183, ip=[fdbd:dccd:cdc2:12c8:0:204::])     (o_proj): Linear(in_features=4096, out_features=4096, bias=False)
(WorkerDict pid=25183, ip=[fdbd:dccd:cdc2:12c8:0:204::])     (q_norm): Qwen3RMSNorm((128,), eps=1e-06)
(WorkerDict pid=25183, ip=[fdbd:dccd:cdc2:12c8:0:204::])     (k_norm): Qwen3RMSNorm((128,), eps=1e-06)
(WorkerDict pid=25183, ip=[fdbd:dccd:cdc2:12c8:0:204::])   )
(WorkerDict pid=25183, ip=[fdbd:dccd:cdc2:12c8:0:204::])   (mlp): Qwen3MLP(
(WorkerDict pid=25183, ip=[fdbd:dccd:cdc2:12c8:0:204::])     (gate_proj): Linear(in_features=4096, out_features=12288, bias=False)
(WorkerDict pid=25183, ip=[fdbd:dccd:cdc2:12c8:0:204::])     (up_proj): Linear(in_features=4096, out_features=12288, bias=False)
(WorkerDict pid=25183, ip=[fdbd:dccd:cdc2:12c8:0:204::])     (down_proj): Linear(in_features=12288, out_features=4096, bias=False)
(WorkerDict pid=25183, ip=[fdbd:dccd:cdc2:12c8:0:204::])     (act_fn): SiLUActivation()
(WorkerDict pid=25183, ip=[fdbd:dccd:cdc2:12c8:0:204::])   )
(WorkerDict pid=25183, ip=[fdbd:dccd:cdc2:12c8:0:204::])   (input_layernorm): Qwen3RMSNorm((4096,), eps=1e-06)
(WorkerDict pid=25183, ip=[fdbd:dccd:cdc2:12c8:0:204::])   (post_attention_layernorm): Qwen3RMSNorm((4096,), eps=1e-06)
(WorkerDict pid=25183, ip=[fdbd:dccd:cdc2:12c8:0:204::]) )]
(WorkerDict pid=25183, ip=[fdbd:dccd:cdc2:12c8:0:204::])   (self_attn): Qwen3Attention(
(WorkerDict pid=25183, ip=[fdbd:dccd:cdc2:12c8:0:204::])     (q_proj): Linear(in_features=4096, out_features=4096, bias=False)
(WorkerDict pid=25183, ip=[fdbd:dccd:cdc2:12c8:0:204::])     (k_proj): Linear(in_features=4096, out_features=1024, bias=False)
(WorkerDict pid=25183, ip=[fdbd:dccd:cdc2:12c8:0:204::])     (v_proj): Linear(in_features=4096, out_features=1024, bias=False)
(WorkerDict pid=25183, ip=[fdbd:dccd:cdc2:12c8:0:204::])     (o_proj): Linear(in_features=4096, out_features=4096, bias=False)
(WorkerDict pid=25183, ip=[fdbd:dccd:cdc2:12c8:0:204::])     (q_norm): Qwen3RMSNorm((128,), eps=1e-06)
(WorkerDict pid=25183, ip=[fdbd:dccd:cdc2:12c8:0:204::])     (k_norm): Qwen3RMSNorm((128,), eps=1e-06)
(WorkerDict pid=25183, ip=[fdbd:dccd:cdc2:12c8:0:204::])   )
(WorkerDict pid=25183, ip=[fdbd:dccd:cdc2:12c8:0:204::])   (mlp): Qwen3MLP(
(WorkerDict pid=25183, ip=[fdbd:dccd:cdc2:12c8:0:204::])     (gate_proj): Linear(in_features=4096, out_features=12288, bias=False)
(WorkerDict pid=25183, ip=[fdbd:dccd:cdc2:12c8:0:204::])     (up_proj): Linear(in_features=4096, out_features=12288, bias=False)
(WorkerDict pid=25183, ip=[fdbd:dccd:cdc2:12c8:0:204::])     (down_proj): Linear(in_features=12288, out_features=4096, bias=False)
(WorkerDict pid=25183, ip=[fdbd:dccd:cdc2:12c8:0:204::])     (act_fn): SiLUActivation()
(WorkerDict pid=25183, ip=[fdbd:dccd:cdc2:12c8:0:204::])   )
(WorkerDict pid=25183, ip=[fdbd:dccd:cdc2:12c8:0:204::])   (input_layernorm): Qwen3RMSNorm((4096,), eps=1e-06)
(WorkerDict pid=25183, ip=[fdbd:dccd:cdc2:12c8:0:204::])   (post_attention_layernorm): Qwen3RMSNorm((4096,), eps=1e-06)
(WorkerDict pid=25183, ip=[fdbd:dccd:cdc2:12c8:0:204::]) )]
(WorkerDict pid=25183, ip=[fdbd:dccd:cdc2:12c8:0:204::])   (self_attn): Qwen3Attention(
(WorkerDict pid=25183, ip=[fdbd:dccd:cdc2:12c8:0:204::])     (q_proj): Linear(in_features=4096, out_features=4096, bias=False)
(WorkerDict pid=25183, ip=[fdbd:dccd:cdc2:12c8:0:204::])     (k_proj): Linear(in_features=4096, out_features=1024, bias=False)
(WorkerDict pid=25183, ip=[fdbd:dccd:cdc2:12c8:0:204::])     (v_proj): Linear(in_features=4096, out_features=1024, bias=False)
(WorkerDict pid=25183, ip=[fdbd:dccd:cdc2:12c8:0:204::])     (o_proj): Linear(in_features=4096, out_features=4096, bias=False)
(WorkerDict pid=25183, ip=[fdbd:dccd:cdc2:12c8:0:204::])     (q_norm): Qwen3RMSNorm((128,), eps=1e-06)
(WorkerDict pid=25183, ip=[fdbd:dccd:cdc2:12c8:0:204::])     (k_norm): Qwen3RMSNorm((128,), eps=1e-06)
(WorkerDict pid=25183, ip=[fdbd:dccd:cdc2:12c8:0:204::])   )
(WorkerDict pid=25183, ip=[fdbd:dccd:cdc2:12c8:0:204::])   (mlp): Qwen3MLP(
(WorkerDict pid=25183, ip=[fdbd:dccd:cdc2:12c8:0:204::])     (gate_proj): Linear(in_features=4096, out_features=12288, bias=False)
(WorkerDict pid=25183, ip=[fdbd:dccd:cdc2:12c8:0:204::])     (up_proj): Linear(in_features=4096, out_features=12288, bias=False)
(WorkerDict pid=25183, ip=[fdbd:dccd:cdc2:12c8:0:204::])     (down_proj): Linear(in_features=12288, out_features=4096, bias=False)
(WorkerDict pid=25183, ip=[fdbd:dccd:cdc2:12c8:0:204::])     (act_fn): SiLUActivation()
(WorkerDict pid=25183, ip=[fdbd:dccd:cdc2:12c8:0:204::])   )
(WorkerDict pid=25183, ip=[fdbd:dccd:cdc2:12c8:0:204::])   (input_layernorm): Qwen3RMSNorm((4096,), eps=1e-06)
(WorkerDict pid=25183, ip=[fdbd:dccd:cdc2:12c8:0:204::])   (post_attention_layernorm): Qwen3RMSNorm((4096,), eps=1e-06)
(WorkerDict pid=25183, ip=[fdbd:dccd:cdc2:12c8:0:204::]) )]
(WorkerDict pid=25183, ip=[fdbd:dccd:cdc2:12c8:0:204::])   (self_attn): Qwen3Attention(
(WorkerDict pid=25183, ip=[fdbd:dccd:cdc2:12c8:0:204::])     (q_proj): Linear(in_features=4096, out_features=4096, bias=False)
(WorkerDict pid=25183, ip=[fdbd:dccd:cdc2:12c8:0:204::])     (k_proj): Linear(in_features=4096, out_features=1024, bias=False)
(WorkerDict pid=25183, ip=[fdbd:dccd:cdc2:12c8:0:204::])     (v_proj): Linear(in_features=4096, out_features=1024, bias=False)
(WorkerDict pid=25183, ip=[fdbd:dccd:cdc2:12c8:0:204::])     (o_proj): Linear(in_features=4096, out_features=4096, bias=False)
(WorkerDict pid=25183, ip=[fdbd:dccd:cdc2:12c8:0:204::])     (q_norm): Qwen3RMSNorm((128,), eps=1e-06)
(WorkerDict pid=25183, ip=[fdbd:dccd:cdc2:12c8:0:204::])     (k_norm): Qwen3RMSNorm((128,), eps=1e-06)
(WorkerDict pid=25183, ip=[fdbd:dccd:cdc2:12c8:0:204::])   )
(WorkerDict pid=25183, ip=[fdbd:dccd:cdc2:12c8:0:204::])   (mlp): Qwen3MLP(
(WorkerDict pid=25183, ip=[fdbd:dccd:cdc2:12c8:0:204::])     (gate_proj): Linear(in_features=4096, out_features=12288, bias=False)
(WorkerDict pid=25183, ip=[fdbd:dccd:cdc2:12c8:0:204::])     (up_proj): Linear(in_features=4096, out_features=12288, bias=False)
(WorkerDict pid=25183, ip=[fdbd:dccd:cdc2:12c8:0:204::])     (down_proj): Linear(in_features=12288, out_features=4096, bias=False)
(WorkerDict pid=25183, ip=[fdbd:dccd:cdc2:12c8:0:204::])     (act_fn): SiLUActivation()
(WorkerDict pid=25183, ip=[fdbd:dccd:cdc2:12c8:0:204::])   )
(WorkerDict pid=25183, ip=[fdbd:dccd:cdc2:12c8:0:204::])   (input_layernorm): Qwen3RMSNorm((4096,), eps=1e-06)
(WorkerDict pid=25183, ip=[fdbd:dccd:cdc2:12c8:0:204::])   (post_attention_layernorm): Qwen3RMSNorm((4096,), eps=1e-06)
(WorkerDict pid=25183, ip=[fdbd:dccd:cdc2:12c8:0:204::]) )]
(WorkerDict pid=25183, ip=[fdbd:dccd:cdc2:12c8:0:204::])   (self_attn): Qwen3Attention(
(WorkerDict pid=25183, ip=[fdbd:dccd:cdc2:12c8:0:204::])     (q_proj): Linear(in_features=4096, out_features=4096, bias=False)
(WorkerDict pid=25183, ip=[fdbd:dccd:cdc2:12c8:0:204::])     (k_proj): Linear(in_features=4096, out_features=1024, bias=False)
(WorkerDict pid=25183, ip=[fdbd:dccd:cdc2:12c8:0:204::])     (v_proj): Linear(in_features=4096, out_features=1024, bias=False)
(WorkerDict pid=25183, ip=[fdbd:dccd:cdc2:12c8:0:204::])     (o_proj): Linear(in_features=4096, out_features=4096, bias=False)
(WorkerDict pid=25183, ip=[fdbd:dccd:cdc2:12c8:0:204::])     (q_norm): Qwen3RMSNorm((128,), eps=1e-06)
(WorkerDict pid=25183, ip=[fdbd:dccd:cdc2:12c8:0:204::])     (k_norm): Qwen3RMSNorm((128,), eps=1e-06)
(WorkerDict pid=25183, ip=[fdbd:dccd:cdc2:12c8:0:204::])   )
(WorkerDict pid=25183, ip=[fdbd:dccd:cdc2:12c8:0:204::])   (mlp): Qwen3MLP(
(WorkerDict pid=25183, ip=[fdbd:dccd:cdc2:12c8:0:204::])     (gate_proj): Linear(in_features=4096, out_features=12288, bias=False)
(WorkerDict pid=25183, ip=[fdbd:dccd:cdc2:12c8:0:204::])     (up_proj): Linear(in_features=4096, out_features=12288, bias=False)
(WorkerDict pid=25183, ip=[fdbd:dccd:cdc2:12c8:0:204::])     (down_proj): Linear(in_features=12288, out_features=4096, bias=False)
(WorkerDict pid=25183, ip=[fdbd:dccd:cdc2:12c8:0:204::])     (act_fn): SiLUActivation()
(WorkerDict pid=25183, ip=[fdbd:dccd:cdc2:12c8:0:204::])   )
(WorkerDict pid=25183, ip=[fdbd:dccd:cdc2:12c8:0:204::])   (input_layernorm): Qwen3RMSNorm((4096,), eps=1e-06)
(WorkerDict pid=25183, ip=[fdbd:dccd:cdc2:12c8:0:204::])   (post_attention_layernorm): Qwen3RMSNorm((4096,), eps=1e-06)
(WorkerDict pid=25183, ip=[fdbd:dccd:cdc2:12c8:0:204::]) )]
(WorkerDict pid=25183, ip=[fdbd:dccd:cdc2:12c8:0:204::])   (self_attn): Qwen3Attention(
(WorkerDict pid=25183, ip=[fdbd:dccd:cdc2:12c8:0:204::])     (q_proj): Linear(in_features=4096, out_features=4096, bias=False)
(WorkerDict pid=25183, ip=[fdbd:dccd:cdc2:12c8:0:204::])     (k_proj): Linear(in_features=4096, out_features=1024, bias=False)
(WorkerDict pid=25183, ip=[fdbd:dccd:cdc2:12c8:0:204::])     (v_proj): Linear(in_features=4096, out_features=1024, bias=False)
(WorkerDict pid=25183, ip=[fdbd:dccd:cdc2:12c8:0:204::])     (o_proj): Linear(in_features=4096, out_features=4096, bias=False)
(WorkerDict pid=25183, ip=[fdbd:dccd:cdc2:12c8:0:204::])     (q_norm): Qwen3RMSNorm((128,), eps=1e-06)
(WorkerDict pid=25183, ip=[fdbd:dccd:cdc2:12c8:0:204::])     (k_norm): Qwen3RMSNorm((128,), eps=1e-06)
(WorkerDict pid=25183, ip=[fdbd:dccd:cdc2:12c8:0:204::])   )
(WorkerDict pid=25183, ip=[fdbd:dccd:cdc2:12c8:0:204::])   (mlp): Qwen3MLP(
(WorkerDict pid=25183, ip=[fdbd:dccd:cdc2:12c8:0:204::])     (gate_proj): Linear(in_features=4096, out_features=12288, bias=False)
(WorkerDict pid=25183, ip=[fdbd:dccd:cdc2:12c8:0:204::])     (up_proj): Linear(in_features=4096, out_features=12288, bias=False)
(WorkerDict pid=25183, ip=[fdbd:dccd:cdc2:12c8:0:204::])     (down_proj): Linear(in_features=12288, out_features=4096, bias=False)
(WorkerDict pid=25183, ip=[fdbd:dccd:cdc2:12c8:0:204::])     (act_fn): SiLUActivation()
(WorkerDict pid=25183, ip=[fdbd:dccd:cdc2:12c8:0:204::])   )
(WorkerDict pid=25183, ip=[fdbd:dccd:cdc2:12c8:0:204::])   (input_layernorm): Qwen3RMSNorm((4096,), eps=1e-06)
(WorkerDict pid=25183, ip=[fdbd:dccd:cdc2:12c8:0:204::])   (post_attention_layernorm): Qwen3RMSNorm((4096,), eps=1e-06)
(WorkerDict pid=25183, ip=[fdbd:dccd:cdc2:12c8:0:204::]) )]
(WorkerDict pid=25183, ip=[fdbd:dccd:cdc2:12c8:0:204::])   (self_attn): Qwen3Attention(
(WorkerDict pid=25183, ip=[fdbd:dccd:cdc2:12c8:0:204::])     (q_proj): Linear(in_features=4096, out_features=4096, bias=False)
(WorkerDict pid=25183, ip=[fdbd:dccd:cdc2:12c8:0:204::])     (k_proj): Linear(in_features=4096, out_features=1024, bias=False)
(WorkerDict pid=25183, ip=[fdbd:dccd:cdc2:12c8:0:204::])     (v_proj): Linear(in_features=4096, out_features=1024, bias=False)
(WorkerDict pid=25183, ip=[fdbd:dccd:cdc2:12c8:0:204::])     (o_proj): Linear(in_features=4096, out_features=4096, bias=False)
(WorkerDict pid=25183, ip=[fdbd:dccd:cdc2:12c8:0:204::])     (q_norm): Qwen3RMSNorm((128,), eps=1e-06)
(WorkerDict pid=25183, ip=[fdbd:dccd:cdc2:12c8:0:204::])     (k_norm): Qwen3RMSNorm((128,), eps=1e-06)
(WorkerDict pid=25183, ip=[fdbd:dccd:cdc2:12c8:0:204::])   )
(WorkerDict pid=25183, ip=[fdbd:dccd:cdc2:12c8:0:204::])   (mlp): Qwen3MLP(
(WorkerDict pid=25183, ip=[fdbd:dccd:cdc2:12c8:0:204::])     (gate_proj): Linear(in_features=4096, out_features=12288, bias=False)
(WorkerDict pid=25183, ip=[fdbd:dccd:cdc2:12c8:0:204::])     (up_proj): Linear(in_features=4096, out_features=12288, bias=False)
(WorkerDict pid=25183, ip=[fdbd:dccd:cdc2:12c8:0:204::])     (down_proj): Linear(in_features=12288, out_features=4096, bias=False)
(WorkerDict pid=25183, ip=[fdbd:dccd:cdc2:12c8:0:204::])     (act_fn): SiLUActivation()
(WorkerDict pid=25183, ip=[fdbd:dccd:cdc2:12c8:0:204::])   )
(WorkerDict pid=25183, ip=[fdbd:dccd:cdc2:12c8:0:204::])   (input_layernorm): Qwen3RMSNorm((4096,), eps=1e-06)
(WorkerDict pid=25183, ip=[fdbd:dccd:cdc2:12c8:0:204::])   (post_attention_layernorm): Qwen3RMSNorm((4096,), eps=1e-06)
(WorkerDict pid=25183, ip=[fdbd:dccd:cdc2:12c8:0:204::]) )]
(WorkerDict pid=25183, ip=[fdbd:dccd:cdc2:12c8:0:204::])   (self_attn): Qwen3Attention(
(WorkerDict pid=25183, ip=[fdbd:dccd:cdc2:12c8:0:204::])     (q_proj): Linear(in_features=4096, out_features=4096, bias=False)
(WorkerDict pid=25183, ip=[fdbd:dccd:cdc2:12c8:0:204::])     (k_proj): Linear(in_features=4096, out_features=1024, bias=False)
(WorkerDict pid=25183, ip=[fdbd:dccd:cdc2:12c8:0:204::])     (v_proj): Linear(in_features=4096, out_features=1024, bias=False)
(WorkerDict pid=25183, ip=[fdbd:dccd:cdc2:12c8:0:204::])     (o_proj): Linear(in_features=4096, out_features=4096, bias=False)
(WorkerDict pid=25183, ip=[fdbd:dccd:cdc2:12c8:0:204::])     (q_norm): Qwen3RMSNorm((128,), eps=1e-06)
(WorkerDict pid=25183, ip=[fdbd:dccd:cdc2:12c8:0:204::])     (k_norm): Qwen3RMSNorm((128,), eps=1e-06)
(WorkerDict pid=25183, ip=[fdbd:dccd:cdc2:12c8:0:204::])   )
(WorkerDict pid=25183, ip=[fdbd:dccd:cdc2:12c8:0:204::])   (mlp): Qwen3MLP(
(WorkerDict pid=25183, ip=[fdbd:dccd:cdc2:12c8:0:204::])     (gate_proj): Linear(in_features=4096, out_features=12288, bias=False)
(WorkerDict pid=25183, ip=[fdbd:dccd:cdc2:12c8:0:204::])     (up_proj): Linear(in_features=4096, out_features=12288, bias=False)
(WorkerDict pid=25183, ip=[fdbd:dccd:cdc2:12c8:0:204::])     (down_proj): Linear(in_features=12288, out_features=4096, bias=False)
(WorkerDict pid=25183, ip=[fdbd:dccd:cdc2:12c8:0:204::])     (act_fn): SiLUActivation()
(WorkerDict pid=25183, ip=[fdbd:dccd:cdc2:12c8:0:204::])   )
(WorkerDict pid=25183, ip=[fdbd:dccd:cdc2:12c8:0:204::])   (input_layernorm): Qwen3RMSNorm((4096,), eps=1e-06)
(WorkerDict pid=25183, ip=[fdbd:dccd:cdc2:12c8:0:204::])   (post_attention_layernorm): Qwen3RMSNorm((4096,), eps=1e-06)
(WorkerDict pid=25183, ip=[fdbd:dccd:cdc2:12c8:0:204::]) )]
(WorkerDict pid=25183, ip=[fdbd:dccd:cdc2:12c8:0:204::])   (self_attn): Qwen3Attention(
(WorkerDict pid=25183, ip=[fdbd:dccd:cdc2:12c8:0:204::])     (q_proj): Linear(in_features=4096, out_features=4096, bias=False)
(WorkerDict pid=25183, ip=[fdbd:dccd:cdc2:12c8:0:204::])     (k_proj): Linear(in_features=4096, out_features=1024, bias=False)
(WorkerDict pid=25183, ip=[fdbd:dccd:cdc2:12c8:0:204::])     (v_proj): Linear(in_features=4096, out_features=1024, bias=False)
(WorkerDict pid=25183, ip=[fdbd:dccd:cdc2:12c8:0:204::])     (o_proj): Linear(in_features=4096, out_features=4096, bias=False)
(WorkerDict pid=25183, ip=[fdbd:dccd:cdc2:12c8:0:204::])     (q_norm): Qwen3RMSNorm((128,), eps=1e-06)
(WorkerDict pid=25183, ip=[fdbd:dccd:cdc2:12c8:0:204::])     (k_norm): Qwen3RMSNorm((128,), eps=1e-06)
(WorkerDict pid=25183, ip=[fdbd:dccd:cdc2:12c8:0:204::])   )
(WorkerDict pid=25183, ip=[fdbd:dccd:cdc2:12c8:0:204::])   (mlp): Qwen3MLP(
(WorkerDict pid=25183, ip=[fdbd:dccd:cdc2:12c8:0:204::])     (gate_proj): Linear(in_features=4096, out_features=12288, bias=False)
(WorkerDict pid=25183, ip=[fdbd:dccd:cdc2:12c8:0:204::])     (up_proj): Linear(in_features=4096, out_features=12288, bias=False)
(WorkerDict pid=25183, ip=[fdbd:dccd:cdc2:12c8:0:204::])     (down_proj): Linear(in_features=12288, out_features=4096, bias=False)
(WorkerDict pid=25183, ip=[fdbd:dccd:cdc2:12c8:0:204::])     (act_fn): SiLUActivation()
(WorkerDict pid=25183, ip=[fdbd:dccd:cdc2:12c8:0:204::])   )
(WorkerDict pid=25183, ip=[fdbd:dccd:cdc2:12c8:0:204::])   (input_layernorm): Qwen3RMSNorm((4096,), eps=1e-06)
(WorkerDict pid=25183, ip=[fdbd:dccd:cdc2:12c8:0:204::])   (post_attention_layernorm): Qwen3RMSNorm((4096,), eps=1e-06)
(WorkerDict pid=25183, ip=[fdbd:dccd:cdc2:12c8:0:204::]) )]
(WorkerDict pid=25183, ip=[fdbd:dccd:cdc2:12c8:0:204::])   (self_attn): Qwen3Attention(
(WorkerDict pid=25183, ip=[fdbd:dccd:cdc2:12c8:0:204::])     (q_proj): Linear(in_features=4096, out_features=4096, bias=False)
(WorkerDict pid=25183, ip=[fdbd:dccd:cdc2:12c8:0:204::])     (k_proj): Linear(in_features=4096, out_features=1024, bias=False)
(WorkerDict pid=25183, ip=[fdbd:dccd:cdc2:12c8:0:204::])     (v_proj): Linear(in_features=4096, out_features=1024, bias=False)
(WorkerDict pid=25183, ip=[fdbd:dccd:cdc2:12c8:0:204::])     (o_proj): Linear(in_features=4096, out_features=4096, bias=False)
(WorkerDict pid=25183, ip=[fdbd:dccd:cdc2:12c8:0:204::])     (q_norm): Qwen3RMSNorm((128,), eps=1e-06)
(WorkerDict pid=25183, ip=[fdbd:dccd:cdc2:12c8:0:204::])     (k_norm): Qwen3RMSNorm((128,), eps=1e-06)
(WorkerDict pid=25183, ip=[fdbd:dccd:cdc2:12c8:0:204::])   )
(WorkerDict pid=25183, ip=[fdbd:dccd:cdc2:12c8:0:204::])   (mlp): Qwen3MLP(
(WorkerDict pid=25183, ip=[fdbd:dccd:cdc2:12c8:0:204::])     (gate_proj): Linear(in_features=4096, out_features=12288, bias=False)
(WorkerDict pid=25183, ip=[fdbd:dccd:cdc2:12c8:0:204::])     (up_proj): Linear(in_features=4096, out_features=12288, bias=False)
(WorkerDict pid=25183, ip=[fdbd:dccd:cdc2:12c8:0:204::])     (down_proj): Linear(in_features=12288, out_features=4096, bias=False)
(WorkerDict pid=25183, ip=[fdbd:dccd:cdc2:12c8:0:204::])     (act_fn): SiLUActivation()
(WorkerDict pid=25183, ip=[fdbd:dccd:cdc2:12c8:0:204::])   )
(WorkerDict pid=25183, ip=[fdbd:dccd:cdc2:12c8:0:204::])   (input_layernorm): Qwen3RMSNorm((4096,), eps=1e-06)
(WorkerDict pid=25183, ip=[fdbd:dccd:cdc2:12c8:0:204::])   (post_attention_layernorm): Qwen3RMSNorm((4096,), eps=1e-06)
(WorkerDict pid=25183, ip=[fdbd:dccd:cdc2:12c8:0:204::]) )]
(WorkerDict pid=25183, ip=[fdbd:dccd:cdc2:12c8:0:204::])   (self_attn): Qwen3Attention(
(WorkerDict pid=25183, ip=[fdbd:dccd:cdc2:12c8:0:204::])     (q_proj): Linear(in_features=4096, out_features=4096, bias=False)
(WorkerDict pid=25183, ip=[fdbd:dccd:cdc2:12c8:0:204::])     (k_proj): Linear(in_features=4096, out_features=1024, bias=False)
(WorkerDict pid=25183, ip=[fdbd:dccd:cdc2:12c8:0:204::])     (v_proj): Linear(in_features=4096, out_features=1024, bias=False)
(WorkerDict pid=25183, ip=[fdbd:dccd:cdc2:12c8:0:204::])     (o_proj): Linear(in_features=4096, out_features=4096, bias=False)
(WorkerDict pid=25183, ip=[fdbd:dccd:cdc2:12c8:0:204::])     (q_norm): Qwen3RMSNorm((128,), eps=1e-06)
(WorkerDict pid=25183, ip=[fdbd:dccd:cdc2:12c8:0:204::])     (k_norm): Qwen3RMSNorm((128,), eps=1e-06)
(WorkerDict pid=25183, ip=[fdbd:dccd:cdc2:12c8:0:204::])   )
(WorkerDict pid=25183, ip=[fdbd:dccd:cdc2:12c8:0:204::])   (mlp): Qwen3MLP(
(WorkerDict pid=25183, ip=[fdbd:dccd:cdc2:12c8:0:204::])     (gate_proj): Linear(in_features=4096, out_features=12288, bias=False)
(WorkerDict pid=25183, ip=[fdbd:dccd:cdc2:12c8:0:204::])     (up_proj): Linear(in_features=4096, out_features=12288, bias=False)
(WorkerDict pid=25183, ip=[fdbd:dccd:cdc2:12c8:0:204::])     (down_proj): Linear(in_features=12288, out_features=4096, bias=False)
(WorkerDict pid=25183, ip=[fdbd:dccd:cdc2:12c8:0:204::])     (act_fn): SiLUActivation()
(WorkerDict pid=25183, ip=[fdbd:dccd:cdc2:12c8:0:204::])   )
(WorkerDict pid=25183, ip=[fdbd:dccd:cdc2:12c8:0:204::])   (input_layernorm): Qwen3RMSNorm((4096,), eps=1e-06)
(WorkerDict pid=25183, ip=[fdbd:dccd:cdc2:12c8:0:204::])   (post_attention_layernorm): Qwen3RMSNorm((4096,), eps=1e-06)
(WorkerDict pid=25183, ip=[fdbd:dccd:cdc2:12c8:0:204::]) )]
(WorkerDict pid=25183, ip=[fdbd:dccd:cdc2:12c8:0:204::])   (self_attn): Qwen3Attention(
(WorkerDict pid=25183, ip=[fdbd:dccd:cdc2:12c8:0:204::])     (q_proj): Linear(in_features=4096, out_features=4096, bias=False)
(WorkerDict pid=25183, ip=[fdbd:dccd:cdc2:12c8:0:204::])     (k_proj): Linear(in_features=4096, out_features=1024, bias=False)
(WorkerDict pid=25183, ip=[fdbd:dccd:cdc2:12c8:0:204::])     (v_proj): Linear(in_features=4096, out_features=1024, bias=False)
(WorkerDict pid=25183, ip=[fdbd:dccd:cdc2:12c8:0:204::])     (o_proj): Linear(in_features=4096, out_features=4096, bias=False)
(WorkerDict pid=25183, ip=[fdbd:dccd:cdc2:12c8:0:204::])     (q_norm): Qwen3RMSNorm((128,), eps=1e-06)
(WorkerDict pid=25183, ip=[fdbd:dccd:cdc2:12c8:0:204::])     (k_norm): Qwen3RMSNorm((128,), eps=1e-06)
(WorkerDict pid=25183, ip=[fdbd:dccd:cdc2:12c8:0:204::])   )
(WorkerDict pid=25183, ip=[fdbd:dccd:cdc2:12c8:0:204::])   (mlp): Qwen3MLP(
(WorkerDict pid=25183, ip=[fdbd:dccd:cdc2:12c8:0:204::])     (gate_proj): Linear(in_features=4096, out_features=12288, bias=False)
(WorkerDict pid=25183, ip=[fdbd:dccd:cdc2:12c8:0:204::])     (up_proj): Linear(in_features=4096, out_features=12288, bias=False)
(WorkerDict pid=25183, ip=[fdbd:dccd:cdc2:12c8:0:204::])     (down_proj): Linear(in_features=12288, out_features=4096, bias=False)
(WorkerDict pid=25183, ip=[fdbd:dccd:cdc2:12c8:0:204::])     (act_fn): SiLUActivation()
(WorkerDict pid=25183, ip=[fdbd:dccd:cdc2:12c8:0:204::])   )
(WorkerDict pid=25183, ip=[fdbd:dccd:cdc2:12c8:0:204::])   (input_layernorm): Qwen3RMSNorm((4096,), eps=1e-06)
(WorkerDict pid=25183, ip=[fdbd:dccd:cdc2:12c8:0:204::])   (post_attention_layernorm): Qwen3RMSNorm((4096,), eps=1e-06)
…
ated 3x across cluster][0m
(WorkerDict pid=25410, ip=[fdbd:dccd:cdc2:12c8:0:204::]) [INFO|/opt/tiger/ray/session_2026-07-22_21-51-44_016392_3268/runtime_resources/working_dir_files/_ray_pkg_2bdef8199c6fe908/submodules/Open-VeOmni/veomni/distributed/torch_parallelize.py:215] 07/22/2026 21:56:31 >> extra_parallel layer pairs: {'model.layers.0': (Qwen3DecoderLayer([32m [repeated 3x across cluster][0m
(WorkerDict pid=25410, ip=[fdbd:dccd:cdc2:12c8:0:204::])   (self_attn): Qwen3Attention([32m [repeated 233x across cluster][0m
(WorkerDict pid=25410, ip=[fdbd:dccd:cdc2:12c8:0:204::])     (q_proj): Linear(in_features=4096, out_features=4096, bias=False)[32m [repeated 233x across cluster][0m
(WorkerDict pid=25410, ip=[fdbd:dccd:cdc2:12c8:0:204::])     (k_proj): Linear(in_features=4096, out_features=1024, bias=False)[32m [repeated 233x across cluster][0m
(WorkerDict pid=25410, ip=[fdbd:dccd:cdc2:12c8:0:204::])     (v_proj): Linear(in_features=4096, out_features=1024, bias=False)[32m [repeated 233x across cluster][0m
(WorkerDict pid=25410, ip=[fdbd:dccd:cdc2:12c8:0:204::])     (o_proj): Linear(in_features=4096, out_features=4096, bias=False)[32m [repeated 233x across cluster][0m
(WorkerDict pid=25410, ip=[fdbd:dccd:cdc2:12c8:0:204::])     (q_norm): Qwen3RMSNorm((128,), eps=1e-06)[32m [repeated 233x across cluster][0m
(WorkerDict pid=25410, ip=[fdbd:dccd:cdc2:12c8:0:204::])     (k_norm): Qwen3RMSNorm((128,), eps=1e-06)[32m [repeated 233x across cluster][0m
(WorkerDict pid=25410, ip=[fdbd:dccd:cdc2:12c8:0:204::])   )[32m [repeated 466x across cluster][0m
(WorkerDict pid=25410, ip=[fdbd:dccd:cdc2:12c8:0:204::])   (mlp): Qwen3MLP([32m [repeated 233x across cluster][0m
(WorkerDict pid=25410, ip=[fdbd:dccd:cdc2:12c8:0:204::])     (gate_proj): Linear(in_features=4096, out_features=12288, bias=False)[32m [repeated 233x across cluster][0m
(WorkerDict pid=25410, ip=[fdbd:dccd:cdc2:12c8:0:204::])     (up_proj): Linear(in_features=4096, out_features=12288, bias=False)[32m [repeated 233x across cluster][0m
(WorkerDict pid=25410, ip=[fdbd:dccd:cdc2:12c8:0:204::])     (down_proj): Linear(in_features=12288, out_features=4096, bias=False)[32m [repeated 233x across cluster][0m
(WorkerDict pid=25410, ip=[fdbd:dccd:cdc2:12c8:0:204::])     (act_fn): SiLUActivation()[32m [repeated 233x across cluster][0m
(WorkerDict pid=25410, ip=[fdbd:dccd:cdc2:12c8:0:204::])   (input_layernorm): Qwen3RMSNorm((4096,), eps=1e-06)[32m [repeated 233x across cluster][0m
(WorkerDict pid=25410, ip=[fdbd:dccd:cdc2:12c8:0:204::])   (post_attention_layernorm): Qwen3RMSNorm((4096,), eps=1e-06)[32m [repeated 233x across cluster][0m
…
(WorkerDict pid=29416, ip=[fdbd:dccd:cdc2:12c8:0:204::]) [INFO|/opt/tiger/ray/session_2026-07-22_21-51-44_016392_3268/runtime_resources/working_dir_files/_ray_pkg_2bdef8199c6fe908/submodules/Open-VeOmni/veomni/distributed/torch_parallelize.py:128] 07/22/2026 22:11:56 >> target classes to shard: {'Qwen3DecoderLayer'}
(WorkerDict pid=29416, ip=[fdbd:dccd:cdc2:12c8:0:204::]) [INFO|/opt/tiger/ray/session_2026-07-22_21-51-44_016392_3268/runtime_resources/working_dir_files/_ray_pkg_2bdef8199c6fe908/submodules/Open-VeOmni/veomni/distributed/torch_parallelize.py:215] 07/22/2026 22:11:56 >> extra_parallel layer pairs: {'model.layers.0': (Qwen3DecoderLayer(
(WorkerDict pid=29416, ip=[fdbd:dccd:cdc2:12c8:0:204::])   (self_attn): Qwen3Attention(
(WorkerDict pid=29416, ip=[fdbd:dccd:cdc2:12c8:0:204::])     (q_proj): Linear(in_features=4096, out_features=4096, bias=False)
(WorkerDict pid=29416, ip=[fdbd:dccd:cdc2:12c8:0:204::])     (k_proj): Linear(in_features=4096, out_features=1024, bias=False)
(WorkerDict pid=29416, ip=[fdbd:dccd:cdc2:12c8:0:204::])     (v_proj): Linear(in_features=4096, out_features=1024, bias=False)
(WorkerDict pid=29416, ip=[fdbd:dccd:cdc2:12c8:0:204::])     (o_proj): Linear(in_features=4096, out_features=4096, bias=False)
(WorkerDict pid=29416, ip=[fdbd:dccd:cdc2:12c8:0:204::])     (q_norm): Qwen3RMSNorm((128,), eps=1e-06)
(WorkerDict pid=29416, ip=[fdbd:dccd:cdc2:12c8:0:204::])     (k_norm): Qwen3RMSNorm((128,), eps=1e-06)
(WorkerDict pid=29416, ip=[fdbd:dccd:cdc2:12c8:0:204::])   )
(WorkerDict pid=29416, ip=[fdbd:dccd:cdc2:12c8:0:204::])   (mlp): Qwen3MLP(
(WorkerDict pid=29416, ip=[fdbd:dccd:cdc2:12c8:0:204::])     (gate_proj): Linear(in_features=4096, out_features=12288, bias=False)
(WorkerDict pid=29416, ip=[fdbd:dccd:cdc2:12c8:0:204::])     (up_proj): Linear(in_features=4096, out_features=12288, bias=False)
(WorkerDict pid=29416, ip=[fdbd:dccd:cdc2:12c8:0:204::])     (down_proj): Linear(in_features=12288, out_features=4096, bias=False)
(WorkerDict pid=29416, ip=[fdbd:dccd:cdc2:12c8:0:204::])     (act_fn): SiLUActivation()
(WorkerDict pid=29416, ip=[fdbd:dccd:cdc2:12c8:0:204::])   )
(WorkerDict pid=29416, ip=[fdbd:dccd:cdc2:12c8:0:204::])   (input_layernorm): Qwen3RMSNorm((4096,), eps=1e-06)
(WorkerDict pid=29416, ip=[fdbd:dccd:cdc2:12c8:0:204::])   (post_attention_layernorm): Qwen3RMSNorm((4096,), eps=1e-06)
(WorkerDict pid=29416, ip=[fdbd:dccd:cdc2:12c8:0:204::]) ), {}), 'model.layers.1': (Qwen3DecoderLayer(
(WorkerDict pid=29416, ip=[fdbd:dccd:cdc2:12c8:0:204::])   (self_attn): Qwen3Attention(
(WorkerDict pid=29416, ip=[fdbd:dccd:cdc2:12c8:0:204::])     (q_proj): Linear(in_features=4096, out_features=4096, bias=False)
(WorkerDict pid=29416, ip=[fdbd:dccd:cdc2:12c8:0:204::])     (k_proj): Linear(in_features=4096, out_features=1024, bias=False)
(WorkerDict pid=29416, ip=[fdbd:dccd:cdc2:12c8:0:204::])     (v_proj): Linear(in_features=4096, out_features=1024, bias=False)
(WorkerDict pid=29416, ip=[fdbd:dccd:cdc2:12c8:0:204::])     (o_proj): Linear(in_features=4096, out_features=4096, bias=False)
(WorkerDict pid=29416, ip=[fdbd:dccd:cdc2:12c8:0:204::])     (q_norm): Qwen3RMSNorm((128,), eps=1e-06)
(WorkerDict pid=29416, ip=[fdbd:dccd:cdc2:12c8:0:204::])     (k_norm): Qwen3RMSNorm((128,), eps=1e-06)
(WorkerDict pid=29416, ip=[fdbd:dccd:cdc2:12c8:0:204::])   )
(WorkerDict pid=29416, ip=[fdbd:dccd:cdc2:12c8:0:204::])   (mlp): Qwen3MLP(
(WorkerDict pid=29416, ip=[fdbd:dccd:cdc2:12c8:0:204::])     (gate_proj): Linear(in_features=4096, out_features=12288, bias=False)
(WorkerDict pid=29416, ip=[fdbd:dccd:cdc2:12c8:0:204::])     (up_proj): Linear(in_features=4096, out_features=12288, bias=False)
(WorkerDict pid=29416, ip=[fdbd:dccd:cdc2:12c8:0:204::])     (down_proj): Linear(in_features=12288, out_features=4096, bias=False)
(WorkerDict pid=29416, ip=[fdbd:dccd:cdc2:12c8:0:204::])     (act_fn): SiLUActivation()
(WorkerDict pid=29416, ip=[fdbd:dccd:cdc2:12c8:0:204::])   )
(WorkerDict pid=29416, ip=[fdbd:dccd:cdc2:12c8:0:204::])   (input_layernorm): Qwen3RMSNorm((4096,), eps=1e-06)
(WorkerDict pid=29416, ip=[fdbd:dccd:cdc2:12c8:0:204::])   (post_attention_layernorm): Qwen3RMSNorm((4096,), eps=1e-06)
(WorkerDict pid=29416, ip=[fdbd:dccd:cdc2:12c8:0:204::]) ), {}), 'model.layers.2': (Qwen3DecoderLayer(
(WorkerDict pid=29416, ip=[fdbd:dccd:cdc2:12c8:0:204::])   (self_attn): Qwen3Attention(
(WorkerDict pid=29416, ip=[fdbd:dccd:cdc2:12c8:0:204::])     (q_proj): Linear(in_features=4096, out_features=4096, bias=False)
(WorkerDict pid=29416, ip=[fdbd:dccd:cdc2:12c8:0:204::])     (k_proj): Linear(in_features=4096, out_features=1024, bias=False)
(WorkerDict pid=29416, ip=[fdbd:dccd:cdc2:12c8:0:204::])     (v_proj): Linear(in_features=4096, out_features=1024, bias=False)
(WorkerDict pid=29416, ip=[fdbd:dccd:cdc2:12c8:0:204::])     (o_proj): Linear(in_features=4096, out_features=4096, bias=False)
(WorkerDict pid=29416, ip=[fdbd:dccd:cdc2:12c8:0:204::])     (q_norm): Qwen3RMSNorm((128,), eps=1e-06)
(WorkerDict pid=29416, ip=[fdbd:dccd:cdc2:12c8:0:204::])     (k_norm): Qwen3RMSNorm((128,), eps=1e-06)
(WorkerDict pid=29416, ip=[fdbd:dccd:cdc2:12c8:0:204::])   )
(WorkerDict pid=29416, ip=[fdbd:dccd:cdc2:12c8:0:204::])   (mlp): Qwen3MLP(
(WorkerDict pid=29416, ip=[fdbd:dccd:cdc2:12c8:0:204::])     (gate_proj): Linear(in_features=4096, out_features=12288, bias=False)
(WorkerDict pid=29416, ip=[fdbd:dccd:cdc2:12c8:0:204::])     (up_proj): Linear(in_features=4096, out_features=12288, bias=False)
(WorkerDict pid=29416, ip=[fdbd:dccd:cdc2:12c8:0:204::])     (down_proj): Linear(in_features=12288, out_features=4096, bias=False)
(WorkerDict pid=29416, ip=[fdbd:dccd:cdc2:12c8:0:204::])     (act_fn): SiLUActivation()
(WorkerDict pid=29416, ip=[fdbd:dccd:cdc2:12c8:0:204::])   )
(WorkerDict pid=29416, ip=[fdbd:dccd:cdc2:12c8:0:204::])   (input_layernorm): Qwen3RMSNorm((4096,), eps=1e-06)
(WorkerDict pid=29416, ip=[fdbd:dccd:cdc2:12c8:0:204::])   (post_attention_layernorm): Qwen3RMSNorm((4096,), eps=1e-06)
(WorkerDict pid=29416, ip=[fdbd:dccd:cdc2:12c8:0:204::]) ), {}), 'model.layers.3': (Qwen3DecoderLayer(
(WorkerDict pid=29416, ip=[fdbd:dccd:cdc2:12c8:0:204::])   (self_attn): Qwen3Attention(
(WorkerDict pid=29416, ip=[fdbd:dccd:cdc2:12c8:0:204::])     (q_proj): Linear(in_features=4096, out_features=4096, bias=False)
(WorkerDict pid=29416, ip=[fdbd:dccd:cdc2:12c8:0:204::])     (k_proj): Linear(in_features=4096, out_features=1024, bias=False)
(WorkerDict pid=29416, ip=[fdbd:dccd:cdc2:12c8:0:204::])     (v_proj): Linear(in_features=4096, out_features=1024, bias=False)
(WorkerDict pid=29416, ip=[fdbd:dccd:cdc2:12c8:0:204::])     (o_proj): Linear(in_features=4096, out_features=4096, bias=False)
(WorkerDict pid=29416, ip=[fdbd:dccd:cdc2:12c8:0:204::])     (q_norm): Qwen3RMSNorm((128,), eps=1e-06)
(WorkerDict pid=29416, ip=[fdbd:dccd:cdc2:12c8:0:204::])     (k_norm): Qwen3RMSNorm((128,), eps=1e-06)
(WorkerDict pid=29416, ip=[fdbd:dccd:cdc2:12c8:0:204::])   )
(WorkerDict pid=29416, ip=[fdbd:dccd:cdc2:12c8:0:204::])   (mlp): Qwen3MLP(
(WorkerDict pid=29416, ip=[fdbd:dccd:cdc2:12c8:0:204::])     (gate_proj): Linear(in_features=4096, out_features=12288, bias=False)
(WorkerDict pid=29416, ip=[fdbd:dccd:cdc2:12c8:0:204::])     (up_proj): Linear(in_features=4096, out_features=12288, bias=False)
(WorkerDict pid=29416, ip=[fdbd:dccd:cdc2:12c8:0:204::])     (down_proj): Linear(in_features=12288, out_features=4096, bias=False)
(WorkerDict pid=29416, ip=[fdbd:dccd:cdc2:12c8:0:204::])     (act_fn): SiLUActivation()
(WorkerDict pid=29416, ip=[fdbd:dccd:cdc2:12c8:0:204::])   )
(WorkerDict pid=29416, ip=[fdbd:dccd:cdc2:12c8:0:204::])   (input_layernorm): Qwen3RMSNorm((4096,), eps=1e-06)
(WorkerDict pid=29416, ip=[fdbd:dccd:cdc2:12c8:0:204::])   (post_attention_layernorm): Qwen3RMSNorm((4096,), eps=1e-06)
(WorkerDict pid=29416, ip=[fdbd:dccd:cdc2:12c8:0:204::]) ), {}), 'model.layers.4': (Qwen3DecoderLayer(
(WorkerDict pid=29416, ip=[fdbd:dccd:cdc2:12c8:0:204::])   (self_attn): Qwen3Attention(
(WorkerDict pid=29416, ip=[fdbd:dccd:cdc2:12c8:0:204::])     (q_proj): Linear(in_features=4096, out_features=4096, bias=False)
(WorkerDict pid=29416, ip=[fdbd:dccd:cdc2:12c8:0:204::])     (k_proj): Linear(in_features=4096, out_features=1024, bias=False)
(WorkerDict pid=29416, ip=[fdbd:dccd:cdc2:12c8:0:204::])     (v_proj): Linear(in_features=4096, out_features=1024, bias=False)
(WorkerDict pid=29416, ip=[fdbd:dccd:cdc2:12c8:0:204::])     (o_proj): Linear(in_features=4096, out_features=4096, bias=False)
(WorkerDict pid=29416, ip=[fdbd:dccd:cdc2:12c8:0:204::])     (q_norm): Qwen3RMSNorm((128,), eps=1e-06)
(WorkerDict pid=29416, ip=[fdbd:dccd:cdc2:12c8:0:204::])     (k_norm): Qwen3RMSNorm((128,), eps=1e-06)
(WorkerDict pid=29416, ip=[fdbd:dccd:cdc2:12c8:0:204::])   )
(WorkerDict pid=29416, ip=[fdbd:dccd:cdc2:12c8:0:204::])   (mlp): Qwen3MLP(
(WorkerDict pid=29416, ip=[fdbd:dccd:cdc2:12c8:0:204::])     (gate_proj): Linear(in_features=4096, out_features=12288, bias=False)
(WorkerDict pid=29416, ip=[fdbd:dccd:cdc2:12c8:0:204::])     (up_proj): Linear(in_features=4096, out_features=12288, bias=False)
(WorkerDict pid=29416, ip=[fdbd:dccd:cdc2:12c8:0:204::])     (down_proj): Linear(in_features=12288, out_features=4096, bias=False)
(WorkerDict pid=29416, ip=[fdbd:dccd:cdc2:12c8:0:204::])     (act_fn): SiLUActivation()
(WorkerDict pid=29416, ip=[fdbd:dccd:cdc2:12c8:0:204::])   )
(WorkerDict pid=29416, ip=[fdbd:dccd:cdc2:12c8:0:204::])   (input_layernorm): Qwen3RMSNorm((4096,), eps=1e-06)
(WorkerDict pid=29416, ip=[fdbd:dccd:cdc2:12c8:0:204::])   (post_attention_layernorm): Qwen3RMSNorm((4096,), eps=1e-06)
(WorkerDict pid=29416, ip=[fdbd:dccd:cdc2:12c8:0:204::]) ), {}), 'model.layers.5': (Qwen3DecoderLayer(
(WorkerDict pid=29416, ip=[fdbd:dccd:cdc2:12c8:0:204::])   (self_attn): Qwen3Attention(
(WorkerDict pid=29416, ip=[fdbd:dccd:cdc2:12c8:0:204::])     (q_proj): Linear(in_features=4096, out_features=4096, bias=False)
(WorkerDict pid=29416, ip=[fdbd:dccd:cdc2:12c8:0:204::])     (k_proj): Linear(in_features=4096, out_features=1024, bias=False)
(WorkerDict pid=29416, ip=[fdbd:dccd:cdc2:12c8:0:204::])     (v_proj): Linear(in_features=4096, out_features=1024, bias=False)
(WorkerDict pid=29416, ip=[fdbd:dccd:cdc2:12c8:0:204::])     (o_proj): Linear(in_features=4096, out_features=4096, bias=False)
(WorkerDict pid=29416, ip=[fdbd:dccd:cdc2:12c8:0:204::])     (q_norm): Qwen3RMSNorm((128,), eps=1e-06)
(WorkerDict pid=29416, ip=[fdbd:dccd:cdc2:12c8:0:204::])     (k_norm): Qwen3RMSNorm((128,), eps=1e-06)
(WorkerDict pid=29416, ip=[fdbd:dccd:cdc2:12c8:0:204::])   )
(WorkerDict pid=29416, ip=[fdbd:dccd:cdc2:12c8:0:204::])   (mlp): Qwen3MLP(
(WorkerDict pid=29416, ip=[fdbd:dccd:cdc2:12c8:0:204::])     (gate_proj): Linear(in_features=4096, out_features=12288, bias=False)
(WorkerDict pid=29416, ip=[fdbd:dccd:cdc2:12c8:0:204::])     (up_proj): Linear(in_features=4096, out_features=12288, bias=False)
(WorkerDict pid=29416, ip=[fdbd:dccd:cdc2:12c8:0:204::])     (down_proj): Linear(in_features=12288, out_features=4096, bias=False)
(WorkerDict pid=29416, ip=[fdbd:dccd:cdc2:12c8:0:204::])     (act_fn): SiLUActivation()
(WorkerDict pid=29416, ip=[fdbd:dccd:cdc2:12c8:0:204::])   )
(WorkerDict pid=29416, ip=[fdbd:dccd:cdc2:12c8:0:204::])   (input_layernorm): Qwen3RMSNorm((4096,), eps=1e-06)
(WorkerDict pid=29416, ip=[fdbd:dccd:cdc2:12c8:0:204::])   (post_attention_layernorm): Qwen3RMSNorm((4096,), eps=1e-06)
(WorkerDict pid=29416, ip=[fdbd:dccd:cdc2:12c8:0:204::]) ), {}), 'model.layers.6': (Qwen3DecoderLayer(
(WorkerDict pid=29416, ip=[fdbd:dccd:cdc2:12c8:0:204::])   (self_attn): Qwen3Attention(
(WorkerDict pid=29416, ip=[fdbd:dccd:cdc2:12c8:0:204::])     (q_proj): Linear(in_features=4096, out_features=4096, bias=False)
(WorkerDict pid=29416, ip=[fdbd:dccd:cdc2:12c8:0:204::])     (k_proj): Linear(in_features=4096, out_features=1024, bias=False)
(WorkerDict pid=29416, ip=[fdbd:dccd:cdc2:12c8:0:204::])     (v_proj): Linear(in_features=4096, out_features=1024, bias=False)
(WorkerDict pid=29416, ip=[fdbd:dccd:cdc2:12c8:0:204::])     (o_proj): Linear(in_features=4096, out_features=4096, bias=False)
(WorkerDict pid=29416, ip=[fdbd:dccd:cdc2:12c8:0:204::])     (q_norm): Qwen3RMSNorm((128,), eps=1e-06)
(WorkerDict pid=29416, ip=[fdbd:dccd:cdc2:12c8:0:204::])     (k_norm): Qwen3RMSNorm((128,), eps=1e-06)
(WorkerDict pid=29416, ip=[fdbd:dccd:cdc2:12c8:0:204::])   )
(WorkerDict pid=29416, ip=[fdbd:dccd:cdc2:12c8:0:204::])   (mlp): Qwen3MLP(
(WorkerDict pid=29416, ip=[fdbd:dccd:cdc2:12c8:0:204::])     (gate_proj): Linear(in_features=4096, out_features=12288, bias=False)
(WorkerDict pid=29416, ip=[fdbd:dccd:cdc2:12c8:0:204::])     (up_proj): Linear(in_features=4096, out_features=12288, bias=False)
(WorkerDict pid=29416, ip=[fdbd:dccd:cdc2:12c8:0:204::])     (down_proj): Linear(in_features=12288, out_features=4096, bias=False)
(WorkerDict pid=29416, ip=[fdbd:dccd:cdc2:12c8:0:204::])     (act_fn): SiLUActivation()
(WorkerDict pid=29416, ip=[fdbd:dccd:cdc2:12c8:0:204::])   )
(WorkerDict pid=29416, ip=[fdbd:dccd:cdc2:12c8:0:204::])   (input_layernorm): Qwen3RMSNorm((4096,), eps=1e-06)
(WorkerDict pid=29416, ip=[fdbd:dccd:cdc2:12c8:0:204::])   (post_attention_layernorm): Qwen3RMSNorm((4096,), eps=1e-06)
(WorkerDict pid=29416, ip=[fdbd:dccd:cdc2:12c8:0:204::]) ), {}), 'model.layers.7': (Qwen3DecoderLayer(
(WorkerDict pid=29416, ip=[fdbd:dccd:cdc2:12c8:0:204::])   (self_attn): Qwen3Attention(
(WorkerDict pid=29416, ip=[fdbd:dccd:cdc2:12c8:0:204::])     (q_proj): Linear(in_features=4096, out_features=4096, bias=False)
(WorkerDict pid=29416, ip=[fdbd:dccd:cdc2:12c8:0:204::])     (k_proj): Linear(in_features=4096, out_features=1024, bias=False)
(WorkerDict pid=29416, ip=[fdbd:dccd:cdc2:12c8:0:204::])     (v_proj): Linear(in_features=4096, out_features=1024, bias=False)
(WorkerDict pid=29416, ip=[fdbd:dccd:cdc2:12c8:0:204::])     (o_proj): Linear(in_features=4096, out_features=4096, bias=False)
(WorkerDict pid=29416, ip=[fdbd:dccd:cdc2:12c8:0:204::])     (q_norm): Qwen3RMSNorm((128,), eps=1e-06)
(WorkerDict pid=29416, ip=[fdbd:dccd:cdc2:12c8:0:204::])     (k_norm): Qwen3RMSNorm((128,), eps=1e-06)
(WorkerDict pid=29416, ip=[fdbd:dccd:cdc2:12c8:0:204::])   )
(WorkerDict pid=29416, ip=[fdbd:dccd:cdc2:12c8:0:204::])   (mlp): Qwen3MLP(
(WorkerDict pid=29416, ip=[fdbd:dccd:cdc2:12c8:0:204::])     (gate_proj): Linear(in_features=4096, out_features=12288, bias=False)
(WorkerDict pid=29416, ip=[fdbd:dccd:cdc2:12c8:0:204::])     (up_proj): Linear(in_features=4096, out_features=12288, bias=False)
(WorkerDict pid=29416, ip=[fdbd:dccd:cdc2:12c8:0:204::])     (down_proj): Linear(in_features=12288, out_features=4096, bias=False)
(WorkerDict pid=29416, ip=[fdbd:dccd:cdc2:12c8:0:204::])     (act_fn): SiLUActivation()
(WorkerDict pid=29416, ip=[fdbd:dccd:cdc2:12c8:0:204::])   )
(WorkerDict pid=29416, ip=[fdbd:dccd:cdc2:12c8:0:204::])   (input_layernorm): Qwen3RMSNorm((4096,), eps=1e-06)
(WorkerDict pid=29416, ip=[fdbd:dccd:cdc2:12c8:0:204::])   (post_attention_layernorm): Qwen3RMSNorm((4096,), eps=1e-06)
(WorkerDict pid=29416, ip=[fdbd:dccd:cdc2:12c8:0:204::]) ), {}), 'model.layers.8': (Qwen3DecoderLayer(
(WorkerDict pid=29416, ip=[fdbd:dccd:cdc2:12c8:0:204::])   (self_attn): Qwen3Attention(
(WorkerDict pid=29416, ip=[fdbd:dccd:cdc2:12c8:0:204::])     (q_proj): Linear(in_features=4096, out_features=4096, bias=False)
(WorkerDict pid=29416, ip=[fdbd:dccd:cdc2:12c8:0:204::])     (k_proj): Linear(in_features=4096, out_features=1024, bias=False)
(WorkerDict pid=29416, ip=[fdbd:dccd:cdc2:12c8:0:204::])     (v_proj): Linear(in_features=4096, out_features=1024, bias=False)
(WorkerDict pid=29416, ip=[fdbd:dccd:cdc2:12c8:0:204::])     (o_proj): Linear(in_features=4096, out_features=4096, bias=False)
(WorkerDict pid=29416, ip=[fdbd:dccd:cdc2:12c8:0:204::])     (q_norm): Qwen3RMSNorm((128,), eps=1e-06)
(WorkerDict pid=29416, ip=[fdbd:dccd:cdc2:12c8:0:204::])     (k_norm): Qwen3RMSNorm((128,), eps=1e-06)
(WorkerDict pid=29416, ip=[fdbd:dccd:cdc2:12c8:0:204::])   )
(WorkerDict pid=29416, ip=[fdbd:dccd:cdc2:12c8:0:204::])   (mlp): Qwen3MLP(
(WorkerDict pid=29416, ip=[fdbd:dccd:cdc2:12c8:0:204::])     (gate_proj): Linear(in_features=4096, out_features=12288, bias=False)
(WorkerDict pid=29416, ip=[fdbd:dccd:cdc2:12c8:0:204::])     (up_proj): Linear(in_features=4096, out_features=12288, bias=False)
(WorkerDict pid=29416, ip=[fdbd:dccd:cdc2:12c8:0:204::])     (down_proj): Linear(in_features=12288, out_features=4096, bias=False)
(WorkerDict pid=29416, ip=[fdbd:dccd:cdc2:12c8:0:204::])     (act_fn): SiLUActivation()
(WorkerDict pid=29416, ip=[fdbd:dccd:cdc2:12c8:0:204::])   )
(WorkerDict pid=29416, ip=[fdbd:dccd:cdc2:12c8:0:204::])   (input_layernorm): Qwen3RMSNorm((4096,), eps=1e-06)
(WorkerDict pid=29416, ip=[fdbd:dccd:cdc2:12c8:0:204::])   (post_attention_layernorm): Qwen3RMSNorm((4096,), eps=1e-06)
(WorkerDict pid=29416, ip=[fdbd:dccd:cdc2:12c8:0:204::]) ), {}), 'model.layers.9': (Qwen3DecoderLayer(
(WorkerDict pid=29416, ip=[fdbd:dccd:cdc2:12c8:0:204::])   (self_attn): Qwen3Attention(
(WorkerDict pid=29416, ip=[fdbd:dccd:cdc2:12c8:0:204::])     (q_proj): Linear(in_features=4096, out_features=4096, bias=False)
(WorkerDict pid=29416, ip=[fdbd:dccd:cdc2:12c8:0:204::])     (k_proj): Linear(in_features=4096, out_features=1024, bias=False)
(WorkerDict pid=29416, ip=[fdbd:dccd:cdc2:12c8:0:204::])     (v_proj): Linear(in_features=4096, out_features=1024, bias=False)
(WorkerDict pid=29416, ip=[fdbd:dccd:cdc2:12c8:0:204::])     (o_proj): Linear(in_features=4096, out_features=4096, bias=False)
(WorkerDict pid=29416, ip=[fdbd:dccd:cdc2:12c8:0:204::])     (q_norm): Qwen3RMSNorm((128,), eps=1e-06)
(WorkerDict pid=29416, ip=[fdbd:dccd:cdc2:12c8:0:204::])     (k_norm): Qwen3RMSNorm((128,), eps=1e-06)
(WorkerDict pid=29416, ip=[fdbd:dccd:cdc2:12c8:0:204::])   )
(WorkerDict pid=29416, ip=[fdbd:dccd:cdc2:12c8:0:204::])   (mlp): Qwen3MLP(
(WorkerDict pid=29416, ip=[fdbd:dccd:cdc2:12c8:0:204::])     (gate_proj): Linear(in_features=4096, out_features=12288, bias=False)
(WorkerDict pid=29416, ip=[fdbd:dccd:cdc2:12c8:0:204::])     (up_proj): Linear(in_features=4096, out_features=12288, bias=False)
(WorkerDict pid=29416, ip=[fdbd:dccd:cdc2:12c8:0:204::])     (down_proj): Linear(in_features=12288, out_features=4096, bias=False)
(WorkerDict pid=29416, ip=[fdbd:dccd:cdc2:12c8:0:204::])     (act_fn): SiLUActivation()
(WorkerDict pid=29416, ip=[fdbd:dccd:cdc2:12c8:0:204::])   )
(WorkerDict pid=29416, ip=[fdbd:dccd:cdc2:12c8:0:204::])   (input_layernorm): Qwen3RMSNorm((4096,), eps=1e-06)
(WorkerDict pid=29416, ip=[fdbd:dccd:cdc2:12c8:0:204::])   (post_attention_layernorm): Qwen3RMSNorm((4096,), eps=1e-06)
(WorkerDict pid=29416, ip=[fdbd:dccd:cdc2:12c8:0:204::]) ), {}), 'model.layers.10': (Qwen3DecoderLayer(
(WorkerDict pid=29416, ip=[fdbd:dccd:cdc2:12c8:0:204::])   (self_attn): Qwen3Attention(
(WorkerDict pid=29416, ip=[fdbd:dccd:cdc2:12c8:0:204::])     (q_proj): Linear(in_features=4096, out_features=4096, bias=False)
(WorkerDict pid=29416, ip=[fdbd:dccd:cdc2:12c8:0:204::])     (k_proj): Linear(in_features=4096, out_features=1024, bias=False)
(WorkerDict pid=29416, ip=[fdbd:dccd:cdc2:12c8:0:204::])     (v_proj): Linear(in_features=4096, out_features=1024, bias=False)
(WorkerDict pid=29416, ip=[fdbd:dccd:cdc2:12c8:0:204::])     (o_proj): Linear(in_features=4096, out_features=4096, bias=False)
(WorkerDict pid=29416, ip=[fdbd:dccd:cdc2:12c8:0:204::])     (q_norm): Qwen3RMSNorm((128,), eps=1e-06)
(WorkerDict pid=29416, ip=[fdbd:dccd:cdc2:12c8:0:204::])     (k_norm): Qwen3RMSNorm((128,), eps=1e-06)
(WorkerDict pid=29416, ip=[fdbd:dccd:cdc2:12c8:0:204::])   )
(WorkerDict pid=29416, ip=[fdbd:dccd:cdc2:12c8:0:204::])   (mlp): Qwen3MLP(
(WorkerDict pid=29416, ip=[fdbd:dccd:cdc2:12c8:0:204::])     (gate_proj): Linear(in_features=4096, out_features=12288, bias=False)
(WorkerDict pid=29416, ip=[fdbd:dccd:cdc2:12c8:0:204::])     (up_proj): Linear(in_features=4096, out_features=12288, bias=False)
(WorkerDict pid=29416, ip=[fdbd:dccd:cdc2:12c8:0:204::])     (down_proj): Linear(in_features=12288, out_features=4096, bias=False)
(WorkerDict pid=29416, ip=[fdbd:dccd:cdc2:12c8:0:204::])     (act_fn): SiLUActivation()
(WorkerDict pid=29416, ip=[fdbd:dccd:cdc2:12c8:0:204::])   )
(WorkerDict pid=29416, ip=[fdbd:dccd:cdc2:12c8:0:204::])   (input_layernorm): Qwen3RMSNorm((4096,), eps=1e-06)
(WorkerDict pid=29416, ip=[fdbd:dccd:cdc2:12c8:0:204::])   (post_attention_layernorm): Qwen3RMSNorm((4096,), eps=1e-06)
(WorkerDict pid=29416, ip=[fdbd:dccd:cdc2:12c8:0:204::]) ), {}), 'model.layers.11': (Qwen3DecoderLayer(
(WorkerDict pid=29416, ip=[fdbd:dccd:cdc2:12c8:0:204::])   (self_attn): Qwen3Attention(
(WorkerDict pid=29416, ip=[fdbd:dccd:cdc2:12c8:0:204::])     (q_proj): Linear(in_features=4096, out_features=4096, bias=False)
(WorkerDict pid=29416, ip=[fdbd:dccd:cdc2:12c8:0:204::])     (k_proj): Linear(in_features=4096, out_features=1024, bias=False)
(WorkerDict pid=29416, ip=[fdbd:dccd:cdc2:12c8:0:204::])     (v_proj): Linear(in_features=4096, out_features=1024, bias=False)
(WorkerDict pid=29416, ip=[fdbd:dccd:cdc2:12c8:0:204::])     (o_proj): Linear(in_features=4096, out_features=4096, bias=False)
(WorkerDict pid=29416, ip=[fdbd:dccd:cdc2:12c8:0:204::])     (q_norm): Qwen3RMSNorm((128,), eps=1e-06)
(WorkerDict pid=29416, ip=[fdbd:dccd:cdc2:12c8:0:204::])     (k_norm): Qwen3RMSNorm((128,), eps=1e-06)
(WorkerDict pid=29416, ip=[fdbd:dccd:cdc2:12c8:0:204::])   )
(WorkerDict pid=29416, ip=[fdbd:dccd:cdc2:12c8:0:204::])   (mlp): Qwen3MLP(
(WorkerDict pid=29416, ip=[fdbd:dccd:cdc2:12c8:0:204::])     (gate_proj): Linear(in_features=4096, out_features=12288, bias=False)
(WorkerDict pid=29416, ip=[fdbd:dccd:cdc2:12c8:0:204::])     (up_proj): Linear(in_features=4096, out_features=12288, bias=False)
(WorkerDict pid=29416, ip=[fdbd:dccd:cdc2:12c8:0:204::])     (down_proj): Linear(in_features=12288, out_features=4096, bias=False)
(WorkerDict pid=29416, ip=[fdbd:dccd:cdc2:12c8:0:204::])     (act_fn): SiLUActivation()
(WorkerDict pid=29416, ip=[fdbd:dccd:cdc2:12c8:0:204::])   )
(WorkerDict pid=29416, ip=[fdbd:dccd:cdc2:12c8:0:204::])   (input_layernorm): Qwen3RMSNorm((4096,), eps=1e-06)
(WorkerDict pid=29416, ip=[fdbd:dccd:cdc2:12c8:0:204::])   (post_attention_layernorm): Qwen3RMSNorm((4096,), eps=1e-06)
(WorkerDict pid=29416, ip=[fdbd:dccd:cdc2:12c8:0:204::]) ), {}), 'model.layers.12': (Qwen3DecoderLayer(
(WorkerDict pid=29416, ip=[fdbd:dccd:cdc2:12c8:0:204::])   (self_attn): Qwen3Attention(
(WorkerDict pid=29416, ip=[fdbd:dccd:cdc2:12c8:0:204::])     (q_proj): Linear(in_features=4096, out_features=4096, bias=False)
(WorkerDict pid=29416, ip=[fdbd:dccd:cdc2:12c8:0:204::])     (k_proj): Linear(in_features=4096, out_features=1024, bias=False)
(WorkerDict pid=29416, ip=[fdbd:dccd:cdc2:12c8:0:204::])     (v_proj): Linear(in_features=4096, out_features=1024, bias=False)
(WorkerDict pid=29416, ip=[fdbd:dccd:cdc2:12c8:0:204::])     (o_proj): Linear(in_features=4096, out_features=4096, bias=False)
(WorkerDict pid=29416, ip=[fdbd:dccd:cdc2:12c8:0:204::])     (q_norm): Qwen3RMSNorm((128,), eps=1e-06)
(WorkerDict pid=29416, ip=[fdbd:dccd:cdc2:12c8:0:204::])     (k_norm): Qwen3RMSNorm((128,), eps=1e-06)
(WorkerDict pid=29416, ip=[fdbd:dccd:cdc2:12c8:0:204::])   )
(WorkerDict pid=29416, ip=[fdbd:dccd:cdc2:12c8:0:204::])   (mlp): Qwen3MLP(
(WorkerDict pid=29416, ip=[fdbd:dccd:cdc2:12c8:0:204::])     (gate_proj): Linear(in_features=4096, out_features=12288, bias=False)
(WorkerDict pid=29416, ip=[fdbd:dccd:cdc2:12c8:0:204::])     (up_proj): Linear(in_features=4096, out_features=12288, bias=False)
(WorkerDict pid=29416, ip=[fdbd:dccd:cdc2:12c8:0:204::])     (down_proj): Linear(in_features=12288, out_features=4096, bias=False)
(WorkerDict pid=29416, ip=[fdbd:dccd:cdc2:12c8:0:204::])     (act_fn): SiLUActivation()
(WorkerDict pid=29416, ip=[fdbd:dccd:cdc2:12c8:0:204::])   )
(WorkerDict pid=29416, ip=[fdbd:dccd:cdc2:12c8:0:204::])   (input_layernorm): Qwen3RMSNorm((4096,), eps=1e-06)
(WorkerDict pid=29416, ip=[fdbd:dccd:cdc2:12c8:0:204::])   (post_attention_layernorm): Qwen3RMSNorm((4096,), eps=1e-06)
(WorkerDict pid=29416, ip=[fdbd:dccd:cdc2:12c8:0:204::]) ), {}), 'model.layers.13': (Qwen3DecoderLayer(
(WorkerDict pid=29416, ip=[fdbd:dccd:cdc2:12c8:0:204::])   (self_attn): Qwen3Attention(
(WorkerDict pid=29416, ip=[fdbd:dccd:cdc2:12c8:0:204::])     (q_proj): Linear(in_features=4096, out_features=4096, bias=False)
(WorkerDict pid=29416, ip=[fdbd:dccd:cdc2:12c8:0:204::])     (k_proj): Linear(in_features=4096, out_features=1024, bias=False)
(WorkerDict pid=29416, ip=[fdbd:dccd:cdc2:12c8:0:204::])     (v_proj): Linear(in_features=4096, out_features=1024, bias=False)
(WorkerDict pid=29416, ip=[fdbd:dccd:cdc2:12c8:0:204::])     (o_proj): Linear(in_features=4096, out_features=4096, bias=False)
(WorkerDict pid=29416, ip=[fdbd:dccd:cdc2:12c8:0:204::])     (q_norm): Qwen3RMSNorm((128,), eps=1e-06)
(WorkerDict pid=29416, ip=[fdbd:dccd:cdc2:12c8:0:204::])     (k_norm): Qwen3RMSNorm((128,), eps=1e-06)
(WorkerDict pid=29416, ip=[fdbd:dccd:cdc2:12c8:0:204::])   )
(WorkerDict pid=29416, ip=[fdbd:dccd:cdc2:12c8:0:204::])   (mlp): Qwen3MLP(
(WorkerDict pid=29416, ip=[fdbd:dccd:cdc2:12c8:0:204::])     (gate_proj): Linear(in_features=4096, out_features=12288, bias=False)
(WorkerDict pid=29416, ip=[fdbd:dccd:cdc2:12c8:0:204::])     (up_proj): Linear(in_features=4096, out_features=12288, bias=False)
(WorkerDict pid=29416, ip=[fdbd:dccd:cdc2:12c8:0:204::])     (down_proj): Linear(in_features=12288, out_features=4096, bias=False)
(WorkerDict pid=29416, ip=[fdbd:dccd:cdc2:12c8:0:204::])     (act_fn): SiLUActivation()
(WorkerDict pid=29416, ip=[fdbd:dccd:cdc2:12c8:0:204::])   )
(WorkerDict pid=29416, ip=[fdbd:dccd:cdc2:12c8:0:204::])   (input_layernorm): Qwen3RMSNorm((4096,), eps=1e-06)
(WorkerDict pid=29416, ip=[fdbd:dccd:cdc2:12c8:0:204::])   (post_attention_layernorm): Qwen3RMSNorm((4096,), eps=1e-06)
(WorkerDict pid=29416, ip=[fdbd:dccd:cdc2:12c8:0:204::]) ), {}), 'model.layers.14': (Qwen3DecoderLayer(
(WorkerDict pid=29416, ip=[fdbd:dccd:cdc2:12c8:0:204::])   (self_attn): Qwen3Attention(
(WorkerDict pid=29416, ip=[fdbd:dccd:cdc2:12c8:0:204::])     (q_proj): Linear(in_features=4096, out_features=4096, bias=False)
(WorkerDict pid=29416, ip=[fdbd:dccd:cdc2:12c8:0:204::])     (k_proj): Linear(in_features=4096, out_features=1024, bias=False)
(WorkerDict pid=29416, ip=[fdbd:dccd:cdc2:12c8:0:204::])     (v_proj): Linear(in_features=4096, out_features=1024, bias=False)
(WorkerDict pid=29416, ip=[fdbd:dccd:cdc2:12c8:0:204::])     (o_proj): Linear(in_features=4096, out_features=4096, bias=False)
(WorkerDict pid=29416, ip=[fdbd:dccd:cdc2:12c8:0:204::])     (q_norm): Qwen3RMSNorm((128,), eps=1e-06)
(WorkerDict pid=29416, ip=[fdbd:dccd:cdc2:12c8:0:204::])     (k_norm): Qwen3RMSNorm((128,), eps=1e-06)
(WorkerDict pid=29416, ip=[fdbd:dccd:cdc2:12c8:0:204::])   )
(WorkerDict pid=29416, ip=[fdbd:dccd:cdc2:12c8:0:204::])   (mlp): Qwen3MLP(
(WorkerDict pid=29416, ip=[fdbd:dccd:cdc2:12c8:0:204::])     (gate_proj): Linear(in_features=4096, out_features=12288, bias=False)
(WorkerDict pid=29416, ip=[fdbd:dccd:cdc2:12c8:0:204::])     (up_proj): Linear(in_features=4096, out_features=12288, bias=False)
(WorkerDict pid=29416, ip=[fdbd:dccd:cdc2:12c8:0:204::])     (down_proj): Linear(in_features=12288, out_features=4096, bias=False)
(WorkerDict pid=29416, ip=[fdbd:dccd:cdc2:12c8:0:204::])     (act_fn): SiLUActivation()
(WorkerDict pid=29416, ip=[fdbd:dccd:cdc2:12c8:0:204::])   )
(WorkerDict pid=29416, ip=[fdbd:dccd:cdc2:12c8:0:204::])   (input_layernorm): Qwen3RMSNorm((4096,), eps=1e-06)
(WorkerDict pid=29416, ip=[fdbd:dccd:cdc2:12c8:0:204::])   (post_attention_layernorm): Qwen3RMSNorm((4096,), eps=1e-06)
(WorkerDict pid=29416, ip=[fdbd:dccd:cdc2:12c8:0:204::]) ), {}), 'model.layers.15': (Qwen3DecoderLayer(
(WorkerDict pid=29416, ip=[fdbd:dccd:cdc2:12c8:0:204::])   (self_attn): Qwen3Attention(
(WorkerDict pid=29416, ip=[fdbd:dccd:cdc2:12c8:0:204::])     (q_proj): Linear(in_features=4096, out_features=4096, bias=False)
(WorkerDict pid=29416, ip=[fdbd:dccd:cdc2:12c8:0:204::])     (k_proj): Linear(in_features=4096, out_features=1024, bias=False)
(WorkerDict pid=29416, ip=[fdbd:dccd:cdc2:12c8:0:204::])     (v_proj): Linear(in_features=4096, out_features=1024, bias=False)
(WorkerDict pid=29416, ip=[fdbd:dccd:cdc2:12c8:0:204::])     (o_proj): Linear(in_features=4096, out_features=4096, bias=False)
(WorkerDict pid=29416, ip=[fdbd:dccd:cdc2:12c8:0:204::])     (q_norm): Qwen3RMSNorm((128,), eps=1e-06)
(WorkerDict pid=29416, ip=[fdbd:dccd:cdc2:12c8:0:204::])     (k_norm): Qwen3RMSNorm((128,), eps=1e-06)
(WorkerDict pid=29416, ip=[fdbd:dccd:cdc2:12c8:0:204::])   )
(WorkerDict pid=29416, ip=[fdbd:dccd:cdc2:12c8:0:204::])   (mlp): Qwen3MLP(
(WorkerDict pid=29416, ip=[fdbd:dccd:cdc2:12c8:0:204::])     (gate_proj): Linear(in_features=4096, out_features=12288, bias=False)
(WorkerDict pid=29416, ip=[fdbd:dccd:cdc2:12c8:0:204::])     (up_proj): Linear(in_features=4096, out_features=12288, bias=False)
(WorkerDict pid=29416, ip=[fdbd:dccd:cdc2:12c8:0:204::])     (down_proj): Linear(in_features=12288, out_features=4096, bias=False)
(WorkerDict pid=29416, ip=[fdbd:dccd:cdc2:12c8:0:204::])     (act_fn): SiLUActivation()
(WorkerDict pid=29416, ip=[fdbd:dccd:cdc2:12c8:0:204::])   )
(WorkerDict pid=29416, ip=[fdbd:dccd:cdc2:12c8:0:204::])   (input_layernorm): Qwen3RMSNorm((4096,), eps=1e-06)
(WorkerDict pid=29416, ip=[fdbd:dccd:cdc2:12c8:0:204::])   (post_attention_layernorm): Qwen3RMSNorm((4096,), eps=1e-06)
(WorkerDict pid=29416, ip=[fdbd:dccd:cdc2:12c8:0:204::]) ), {}), 'model.layers.16': (Qwen3DecoderLayer(
(WorkerDict pid=29416, ip=[fdbd:dccd:cdc2:12c8:0:204::])   (self_attn): Qwen3Attention(
(WorkerDict pid=29416, ip=[fdbd:dccd:cdc2:12c8:0:204::])     (q_proj): Linear(in_features=4096, out_features=4096, bias=False)
(WorkerDict pid=29416, ip=[fdbd:dccd:cdc2:12c8:0:204::])     (k_proj): Linear(in_features=4096, out_features=1024, bias=False)
(WorkerDict pid=29416, ip=[fdbd:dccd:cdc2:12c8:0:204::])     (v_proj): Linear(in_features=4096, out_features=1024, bias=False)
(WorkerDict pid=29416, ip=[fdbd:dccd:cdc2:12c8:0:204::])     (o_proj): Linear(in_features=4096, out_features=4096, bias=False)
(WorkerDict pid=29416, ip=[fdbd:dccd:cdc2:12c8:0:204::])     (q_norm): Qwen3RMSNorm((128,), eps=1e-06)
(WorkerDict pid=29416, ip=[fdbd:dccd:cdc2:12c8:0:204::])     (k_norm): Qwen3RMSNorm((128,), eps=1e-06)
(WorkerDict pid=29416, ip=[fdbd:dccd:cdc2:12c8:0:204::])   )
(WorkerDict pid=29416, ip=[fdbd:dccd:cdc2:12c8:0:204::])   (mlp): Qwen3MLP(
(WorkerDict pid=29416, ip=[fdbd:dccd:cdc2:12c8:0:204::])     (gate_proj): Linear(in_features=4096, out_features=12288, bias=False)
(WorkerDict pid=29416, ip=[fdbd:dccd:cdc2:12c8:0:204::])     (up_proj): Linear(in_features=4096, out_features=12288, bias=False)
(WorkerDict pid=29416, ip=[fdbd:dccd:cdc2:12c8:0:204::])     (down_proj): Linear(in_features=12288, out_features=4096, bias=False)
(WorkerDict pid=29416, ip=[fdbd:dccd:cdc2:12c8:0:204::])     (act_fn): SiLUActivation()
(WorkerDict pid=29416, ip=[fdbd:dccd:cdc2:12c8:0:204::])   )
(WorkerDict pid=29416, ip=[fdbd:dccd:cdc2:12c8:0:204::])   (input_layernorm): Qwen3RMSNorm((4096,), eps=1e-06)
(WorkerDict pid=29416, ip=[fdbd:dccd:cdc2:12c8:0:204::])   (post_attention_layernorm): Qwen3RMSNorm((4096,), eps=1e-06)
(WorkerDict pid=29416, ip=[fdbd:dccd:cdc2:12c8:0:204::]) ), {}), 'model.layers.17': (Qwen3DecoderLayer(
(WorkerDict pid=29416, ip=[fdbd:dccd:cdc2:12c8:0:204::])   (self_attn): Qwen3Attention(
(WorkerDict pid=29416, ip=[fdbd:dccd:cdc2:12c8:0:204::])     (q_proj): Linear(in_features=4096, out_features=4096, bias=False)
(WorkerDict pid=29416, ip=[fdbd:dccd:cdc2:12c8:0:204::])     (k_proj): Linear(in_features=4096, out_features=1024, bias=False)
(WorkerDict pid=29416, ip=[fdbd:dccd:cdc2:12c8:0:204::])     (v_proj): Linear(in_features=4096, out_features=1024, bias=False)
(WorkerDict pid=29416, ip=[fdbd:dccd:cdc2:12c8:0:204::])     (o_proj): Linear(in_features=4096, out_features=4096, bias=False)
(WorkerDict pid=29416, ip=[fdbd:dccd:cdc2:12c8:0:204::])     (q_norm): Qwen3RMSNorm((128,), eps=1e-06)
(WorkerDict pid=29416, ip=[fdbd:dccd:cdc2:12c8:0:204::])     (k_norm): Qwen3RMSNorm((128,), eps=1e-06)
(WorkerDict pid=29416, ip=[fdbd:dccd:cdc2:12c8:0:204::])   )
(WorkerDict pid=29416, ip=[fdbd:dccd:cdc2:12c8:0:204::])   (mlp): Qwen3MLP(
(WorkerDict pid=29416, ip=[fdbd:dccd:cdc2:12c8:0:204::])     (gate_proj): Linear(in_features=4096, out_features=12288, bias=False)
(WorkerDict pid=29416, ip=[fdbd:dccd:cdc2:12c8:0:204::])     (up_proj): Linear(in_features=4096, out_features=12288, bias=False)
(WorkerDict pid=29416, ip=[fdbd:dccd:cdc2:12c8:0:204::])     (down_proj): Linear(in_features=12288, out_features=4096, bias=False)
(WorkerDict pid=29416, ip=[fdbd:dccd:cdc2:12c8:0:204::])     (act_fn): SiLUActivation()
(WorkerDict pid=29416, ip=[fdbd:dccd:cdc2:12c8:0:204::])   )
(WorkerDict pid=29416, ip=[fdbd:dccd:cdc2:12c8:0:204::])   (input_layernorm): Qwen3RMSNorm((4096,), eps=1e-06)
(WorkerDict pid=29416, ip=[fdbd:dccd:cdc2:12c8:0:204::])   (post_attention_layernorm): Qwen3RMSNorm((4096,), eps=1e-06)
(WorkerDict pid=29416, ip=[fdbd:dccd:cdc2:12c8:0:204::]) ), {}), 'model.layers.18': (Qwen3DecoderLayer(
(WorkerDict pid=29416, ip=[fdbd:dccd:cdc2:12c8:0:204::])   (self_attn): Qwen3Attention(
(WorkerDict pid=29416, ip=[fdbd:dccd:cdc2:12c8:0:204::])     (q_proj): Linear(in_features=4096, out_features=4096, bias=False)
(WorkerDict pid=29416, ip=[fdbd:dccd:cdc2:12c8:0:204::])     (k_proj): Linear(in_features=4096, out_features=1024, bias=False)
(WorkerDict pid=29416, ip=[fdbd:dccd:cdc2:12c8:0:204::])     (v_proj): Linear(in_features=4096, out_features=1024, bias=False)
(WorkerDict pid=29416, ip=[fdbd:dccd:cdc2:12c8:0:204::])     (o_proj): Linear(in_features=4096, out_features=4096, bias=False)
(WorkerDict pid=29416, ip=[fdbd:dccd:cdc2:12c8:0:204::])     (q_norm): Qwen3RMSNorm((128,), eps=1e-06)
(WorkerDict pid=29416, ip=[fdbd:dccd:cdc2:12c8:0:204::])     (k_norm): Qwen3RMSNorm((128,), eps=1e-06)
(WorkerDict pid=29416, ip=[fdbd:dccd:cdc2:12c8:0:204::])   )
(WorkerDict pid=29416, ip=[fdbd:dccd:cdc2:12c8:0:204::])   (mlp): Qwen3MLP(
(WorkerDict pid=29416, ip=[fdbd:dccd:cdc2:12c8:0:204::])     (gate_proj): Linear(in_features=4096, out_features=12288, bias=False)
(WorkerDict pid=29416, ip=[fdbd:dccd:cdc2:12c8:0:204::])     (up_proj): Linear(in_features=4096, out_features=12288, bias=False)
(WorkerDict pid=29416, ip=[fdbd:dccd:cdc2:12c8:0:204::])     (down_proj): Linear(in_features=12288, out_features=4096, bias=False)
(WorkerDict pid=29416, ip=[fdbd:dccd:cdc2:12c8:0:204::])     (act_fn): SiLUActivation()
(WorkerDict pid=29416, ip=[fdbd:dccd:cdc2:12c8:0:204::])   )
(WorkerDict pid=29416, ip=[fdbd:dccd:cdc2:12c8:0:204::])   (input_layernorm): Qwen3RMSNorm((4096,), eps=1e-06)
(WorkerDict pid=29416, ip=[fdbd:dccd:cdc2:12c8:0:204::])   (post_attention_layernorm): Qwen3RMSNorm((4096,), eps=1e-06)
(WorkerDict pid=29416, ip=[fdbd:dccd:cdc2:12c8:0:204::]) ), {}), 'model.layers.19': (Qwen3DecoderLayer(
(WorkerDict pid=29416, ip=[fdbd:dccd:cdc2:12c8:0:204::])   (self_attn): Qwen3Attention(
(WorkerDict pid=29416, ip=[fdbd:dccd:cdc2:12c8:0:204::])     (q_proj): Linear(in_features=4096, out_features=4096, bias=False)
(WorkerDict pid=29416, ip=[fdbd:dccd:cdc2:12c8:0:204::])     (k_proj): Linear(in_features=4096, out_features=1024, bias=False)
(WorkerDict pid=29416, ip=[fdbd:dccd:cdc2:12c8:0:204::])     (v_proj): Linear(in_features=4096, out_features=1024, bias=False)
(WorkerDict pid=29416, ip=[fdbd:dccd:cdc2:12c8:0:204::])     (o_proj): Linear(in_features=4096, out_features=4096, bias=False)
(WorkerDict pid=29416, ip=[fdbd:dccd:cdc2:12c8:0:204::])     (q_norm): Qwen3RMSNorm((128,), eps=1e-06)
(WorkerDict pid=29416, ip=[fdbd:dccd:cdc2:12c8:0:204::])     (k_norm): Qwen3RMSNorm((128,), eps=1e-06)
(WorkerDict pid=29416, ip=[fdbd:dccd:cdc2:12c8:0:204::])   )
(WorkerDict pid=29416, ip=[fdbd:dccd:cdc2:12c8:0:204::])   (mlp): Qwen3MLP(
(WorkerDict pid=29416, ip=[fdbd:dccd:cdc2:12c8:0:204::])     (gate_proj): Linear(in_features=4096, out_features=12288, bias=False)
(WorkerDict pid=29416, ip=[fdbd:dccd:cdc2:12c8:0:204::])     (up_proj): Linear(in_features=4096, out_features=12288, bias=False)
(WorkerDict pid=29416, ip=[fdbd:dccd:cdc2:12c8:0:204::])     (down_proj): Linear(in_features=12288, out_features=4096, bias=False)
(WorkerDict pid=29416, ip=[fdbd:dccd:cdc2:12c8:0:204::])     (act_fn): SiLUActivation()
(WorkerDict pid=29416, ip=[fdbd:dccd:cdc2:12c8:0:204::])   )
(WorkerDict pid=29416, ip=[fdbd:dccd:cdc2:12c8:0:204::])   (input_layernorm): Qwen3RMSNorm((4096,), eps=1e-06)
(WorkerDict pid=29416, ip=[fdbd:dccd:cdc2:12c8:0:204::])   (post_attention_layernorm): Qwen3RMSNorm((4096,), eps=1e-06)
(WorkerDict pid=29416, ip=[fdbd:dccd:cdc2:12c8:0:204::]) ), {}), 'model.layers.20': (Qwen3DecoderLayer(
(WorkerDict pid=29416, ip=[fdbd:dccd:cdc2:12c8:0:204::])   (self_attn): Qwen3Attention(
(WorkerDict pid=29416, ip=[fdbd:dccd:cdc2:12c8:0:204::])     (q_proj): Linear(in_features=4096, out_features=4096, bias=False)
(WorkerDict pid=29416, ip=[fdbd:dccd:cdc2:12c8:0:204::])     (k_proj): Linear(in_features=4096, out_features=1024, bias=False)
(WorkerDict pid=29416, ip=[fdbd:dccd:cdc2:12c8:0:204::])     (v_proj): Linear(in_features=4096, out_features=1024, bias=False)
(WorkerDict pid=29416, ip=[fdbd:dccd:cdc2:12c8:0:204::])     (o_proj): Linear(in_features=4096, out_features=4096, bias=False)
(WorkerDict pid=29416, ip=[fdbd:dccd:cdc2:12c8:0:204::])     (q_norm): Qwen3RMSNorm((128,), eps=1e-06)
(WorkerDict pid=29416, ip=[fdbd:dccd:cdc2:12c8:0:204::])     (k_norm): Qwen3RMSNorm((128,), eps=1e-06)
(WorkerDict pid=29416, ip=[fdbd:dccd:cdc2:12c8:0:204::])   )
(WorkerDict pid=29416, ip=[fdbd:dccd:cdc2:12c8:0:204::])   (mlp): Qwen3MLP(
(WorkerDict pid=29416, ip=[fdbd:dccd:cdc2:12c8:0:204::])     (gate_proj): Linear(in_features=4096, out_features=12288, bias=False)
(WorkerDict pid=29416, ip=[fdbd:dccd:cdc2:12c8:0:204::])     (up_proj): Linear(in_features=4096, out_features=12288, bias=False)
(WorkerDict pid=29416, ip=[fdbd:dccd:cdc2:12c8:0:204::])     (down_proj): Linear(in_features=12288, out_features=4096, bias=False)
(WorkerDict pid=29416, ip=[fdbd:dccd:cdc2:12c8:0:204::])     (act_fn): SiLUActivation()
(WorkerDict pid=29416, ip=[fdbd:dccd:cdc2:12c8:0:204::])   )
(WorkerDict pid=29416, ip=[fdbd:dccd:cdc2:12c8:0:204::])   (input_layernorm): Qwen3RMSNorm((4096,), eps=1e-06)
(WorkerDict pid=29416, ip=[fdbd:dccd:cdc2:12c8:0:204::])   (post_attention_layernorm): Qwen3RMSNorm((4096,), eps=1e-06)
(WorkerDict pid=29416, ip=[fdbd:dccd:cdc2:12c8:0:204::]) ), {}), 'model.layers.21': (Qwen3DecoderLayer(
(WorkerDict pid=29416, ip=[fdbd:dccd:cdc2:12c8:0:204::])   (self_attn): Qwen3Attention(
(WorkerDict pid=29416, ip=[fdbd:dccd:cdc2:12c8:0:204::])     (q_proj): Linear(in_features=4096, out_features=4096, bias=False)
(WorkerDict pid=29416, ip=[fdbd:dccd:cdc2:12c8:0:204::])     (k_proj): Linear(in_features=4096, out_features=1024, bias=False)
(WorkerDict pid=29416, ip=[fdbd:dccd:cdc2:12c8:0:204::])     (v_proj): Linear(in_features=4096, out_features=1024, bias=False)
(WorkerDict pid=29416, ip=[fdbd:dccd:cdc2:12c8:0:204::])     (o_proj): Linear(in_features=4096, out_features=4096, bias=False)
(WorkerDict pid=29416, ip=[fdbd:dccd:cdc2:12c8:0:204::])     (q_norm): Qwen3RMSNorm((128,), eps=1e-06)
(WorkerDict pid=29416, ip=[fdbd:dccd:cdc2:12c8:0:204::])     (k_norm): Qwen3RMSNorm((128,), eps=1e-06)
(WorkerDict pid=29416, ip=[fdbd:dccd:cdc2:12c8:0:204::])   )
(WorkerDict pid=29416, ip=[fdbd:dccd:cdc2:12c8:0:204::])   (mlp): Qwen3MLP(
(WorkerDict pid=29416, ip=[fdbd:dccd:cdc2:12c8:0:204::])     (gate_proj): Linear(in_features=4096, out_features=12288, bias=False)
(WorkerDict pid=29416, ip=[fdbd:dccd:cdc2:12c8:0:204::])     (up_proj): Linear(in_features=4096, out_features=12288, bias=False)
(WorkerDict pid=29416, ip=[fdbd:dccd:cdc2:12c8:0:204::])     (down_proj): Linear(in_features=12288, out_features=4096, bias=False)
(WorkerDict pid=29416, ip=[fdbd:dccd:cdc2:12c8:0:204::])     (act_fn): SiLUActivation()
(WorkerDict pid=29416, ip=[fdbd:dccd:cdc2:12c8:0:204::])   )
(WorkerDict pid=29416, ip=[fdbd:dccd:cdc2:12c8:0:204::])   (input_layernorm): Qwen3RMSNorm((4096,), eps=1e-06)
(WorkerDict pid=29416, ip=[fdbd:dccd:cdc2:12c8:0:204::])   (post_attention_layernorm): Qwen3RMSNorm((4096,), eps=1e-06)
(WorkerDict pid=29416, ip=[fdbd:dccd:cdc2:12c8:0:204::]) ), {}), 'model.layers.22': (Qwen3DecoderLayer(
(WorkerDict pid=29416, ip=[fdbd:dccd:cdc2:12c8:0:204::])   (self_attn): Qwen3Attention(
(WorkerDict pid=29416, ip=[fdbd:dccd:cdc2:12c8:0:204::])     (q_proj): Linear(in_features=4096, out_features=4096, bias=False)
(WorkerDict pid=29416, ip=[fdbd:dccd:cdc2:12c8:0:204::])     (k_proj): Linear(in_features=4096, out_features=1024, bias=False)
(WorkerDict pid=29416, ip=[fdbd:dccd:cdc2:12c8:0:204::])     (v_proj): Linear(in_features=4096, out_features=1024, bias=False)
(WorkerDict pid=29416, ip=[fdbd:dccd:cdc2:12c8:0:204::])     (o_proj): Linear(in_features=4096, out_features=4096, bias=False)
(WorkerDict pid=29416, ip=[fdbd:dccd:cdc2:12c8:0:204::])     (q_norm): Qwen3RMSNorm((128,), eps=1e-06)
(WorkerDict pid=29416, ip=[fdbd:dccd:cdc2:12c8:0:204::])     (k_norm): Qwen3RMSNorm((128,), eps=1e-06)
(WorkerDict pid=29416, ip=[fdbd:dccd:cdc2:12c8:0:204::])   )
(WorkerDict pid=29416, ip=[fdbd:dccd:cdc2:12c8:0:204::])   (mlp): Qwen3MLP(
(WorkerDict pid=29416, ip=[fdbd:dccd:cdc2:12c8:0:204::])     (gate_proj): Linear(in_features=4096, out_features=12288, bias=False)
(WorkerDict pid=29416, ip=[fdbd:dccd:cdc2:12c8:0:204::])     (up_proj): Linear(in_features=4096, out_features=12288, bias=False)
(WorkerDict pid=29416, ip=[fdbd:dccd:cdc2:12c8:0:204::])     (down_proj): Linear(in_features=12288, out_features=4096, bias=False)
(WorkerDict pid=29416, ip=[fdbd:dccd:cdc2:12c8:0:204::])     (act_fn): SiLUActivation()
(WorkerDict pid=29416, ip=[fdbd:dccd:cdc2:12c8:0:204::])   )
(WorkerDict pid=29416, ip=[fdbd:dccd:cdc2:12c8:0:204::])   (input_layernorm): Qwen3RMSNorm((4096,), eps=1e-06)
(WorkerDict pid=29416, ip=[fdbd:dccd:cdc2:12c8:0:204::])   (post_attention_layernorm): Qwen3RMSNorm((4096,), eps=1e-06)
(WorkerDict pid=29416, ip=[fdbd:dccd:cdc2:12c8:0:204::]) ), {}), 'model.layers.23': (Qwen3DecoderLayer(
(WorkerDict pid=29416, ip=[fdbd:dccd:cdc2:12c8:0:204::])   (self_attn): Qwen3Attention(
(WorkerDict pid=29416, ip=[fdbd:dccd:cdc2:12c8:0:204::])     (q_proj): Linear(in_features=4096, out_features=4096, bias=False)
(WorkerDict pid=29416, ip=[fdbd:dccd:cdc2:12c8:0:204::])     (k_proj): Linear(in_features=4096, out_features=1024, bias=False)
(WorkerDict pid=29416, ip=[fdbd:dccd:cdc2:12c8:0:204::])     (v_proj): Linear(in_features=4096, out_features=1024, bias=False)
(WorkerDict pid=29416, ip=[fdbd:dccd:cdc2:12c8:0:204::])     (o_proj): Linear(in_features=4096, out_features=4096, bias=False)
(WorkerDict pid=29416, ip=[fdbd:dccd:cdc2:12c8:0:204::])     (q_norm): Qwen3RMSNorm((128,), eps=1e-06)
(WorkerDict pid=29416, ip=[fdbd:dccd:cdc2:12c8:0:204::])     (k_norm): Qwen3RMSNorm((128,), eps=1e-06)
(WorkerDict pid=29416, ip=[fdbd:dccd:cdc2:12c8:0:204::])   )
(WorkerDict pid=29416, ip=[fdbd:dccd:cdc2:12c8:0:204::])   (mlp): Qwen3MLP(
(WorkerDict pid=29416, ip=[fdbd:dccd:cdc2:12c8:0:204::])     (gate_proj): Linear(in_features=4096, out_features=12288, bias=False)
(WorkerDict pid=29416, ip=[fdbd:dccd:cdc2:12c8:0:204::])     (up_proj): Linear(in_features=4096, out_features=12288, bias=False)
(WorkerDict pid=29416, ip=[fdbd:dccd:cdc2:12c8:0:204::])     (down_proj): Linear(in_features=12288, out_features=4096, bias=False)
(WorkerDict pid=29416, ip=[fdbd:dccd:cdc2:12c8:0:204::])     (act_fn): SiLUActivation()
(WorkerDict pid=29416, ip=[fdbd:dccd:cdc2:12c8:0:204::])   )
(WorkerDict pid=29416, ip=[fdbd:dccd:cdc2:12c8:0:204::])   (input_layernorm): Qwen3RMSNorm((4096,), eps=1e-06)
(WorkerDict pid=29416, ip=[fdbd:dccd:cdc2:12c8:0:204::])   (post_attention_layernorm): Qwen3RMSNorm((4096,), eps=1e-06)
(WorkerDict pid=29416, ip=[fdbd:dccd:cdc2:12c8:0:204::]) ), {}), 'model.layers.24': (Qwen3DecoderLayer(
(WorkerDict pid=29416, ip=[fdbd:dccd:cdc2:12c8:0:204::])   (self_attn): Qwen3Attention(
(WorkerDict pid=29416, ip=[fdbd:dccd:cdc2:12c8:0:204::])     (q_proj): Linear(in_features=4096, out_features=4096, bias=False)
(WorkerDict pid=29416, ip=[fdbd:dccd:cdc2:12c8:0:204::])     (k_proj): Linear(in_features=4096, out_features=1024, bias=False)
(WorkerDict pid=29416, ip=[fdbd:dccd:cdc2:12c8:0:204::])     (v_proj): Linear(in_features=4096, out_features=1024, bias=False)
(WorkerDict pid=29416, ip=[fdbd:dccd:cdc2:12c8:0:204::])     (o_proj): Linear(in_features=4096, out_features=4096, bias=False)
(WorkerDict pid=29416, ip=[fdbd:dccd:cdc2:12c8:0:204::])     (q_norm): Qwen3RMSNorm((128,), eps=1e-06)
(WorkerDict pid=29416, ip=[fdbd:dccd:cdc2:12c8:0:204::])     (k_norm): Qwen3RMSNorm((128,), eps=1e-06)
(WorkerDict pid=29416, ip=[fdbd:dccd:cdc2:12c8:0:204::])   )
(WorkerDict pid=29416, ip=[fdbd:dccd:cdc2:12c8:0:204::])   (mlp): Qwen3MLP(
(WorkerDict pid=29416, ip=[fdbd:dccd:cdc2:12c8:0:204::])     (gate_proj): Linear(in_features=4096, out_features=12288, bias=False)
(WorkerDict pid=29416, ip=[fdbd:dccd:cdc2:12c8:0:204::])     (up_proj): Linear(in_features=4096, out_features=12288, bias=False)
(WorkerDict pid=29416, ip=[fdbd:dccd:cdc2:12c8:0:204::])     (down_proj): Linear(in_features=12288, out_features=4096, bias=False)
(WorkerDict pid=29416, ip=[fdbd:dccd:cdc2:12c8:0:204::])     (act_fn): SiLUActivation()
(WorkerDict pid=29416, ip=[fdbd:dccd:cdc2:12c8:0:204::])   )
(WorkerDict pid=29416, ip=[fdbd:dccd:cdc2:12c8:0:204::])   (input_layernorm): Qwen3RMSNorm((4096,), eps=1e-06)
(WorkerDict pid=29416, ip=[fdbd:dccd:cdc2:12c8:0:204::])   (post_attention_layernorm): Qwen3RMSNorm((4096,), eps=1e-06)
(WorkerDict pid=29416, ip=[fdbd:dccd:cdc2:12c8:0:204::]) ), {}), 'model.layers.25': (Qwen3DecoderLayer(
(WorkerDict pid=29416, ip=[fdbd:dccd:cdc2:12c8:0:204::])   (self_attn): Qwen3Attention(
(WorkerDict pid=29416, ip=[fdbd:dccd:cdc2:12c8:0:204::])     (q_proj): Linear(in_features=4096, out_features=4096, bias=False)
(WorkerDict pid=29416, ip=[fdbd:dccd:cdc2:12c8:0:204::])     (k_proj): Linear(in_features=4096, out_features=1024, bias=False)
(WorkerDict pid=29416, ip=[fdbd:dccd:cdc2:12c8:0:204::])     (v_proj): Linear(in_features=4096, out_features=1024, bias=False)
(WorkerDict pid=29416, ip=[fdbd:dccd:cdc2:12c8:0:204::])     (o_proj): Linear(in_features=4096, out_features=4096, bias=False)
(WorkerDict pid=29416, ip=[fdbd:dccd:cdc2:12c8:0:204::])     (q_norm): Qwen3RMSNorm((128,), eps=1e-06)
(WorkerDict pid=29416, ip=[fdbd:dccd:cdc2:12c8:0:204::])     (k_norm): Qwen3RMSNorm((128,), eps=1e-06)
(WorkerDict pid=29416, ip=[fdbd:dccd:cdc2:12c8:0:204::])   )
(WorkerDict pid=29416, ip=[fdbd:dccd:cdc2:12c8:0:204::])   (mlp): Qwen3MLP(
(WorkerDict pid=29416, ip=[fdbd:dccd:cdc2:12c8:0:204::])     (gate_proj): Linear(in_features=4096, out_features=12288, bias=False)
(WorkerDict pid=29416, ip=[fdbd:dccd:cdc2:12c8:0:204::])     (up_proj): Linear(in_features=4096, out_features=12288, bias=False)
(WorkerDict pid=29416, ip=[fdbd:dccd:cdc2:12c8:0:204::])     (down_proj): Linear(in_features=12288, out_features=4096, bias=False)
(WorkerDict pid=29416, ip=[fdbd:dccd:cdc2:12c8:0:204::])     (act_fn): SiLUActivation()
(WorkerDict pid=29416, ip=[fdbd:dccd:cdc2:12c8:0:204::])   )
(WorkerDict pid=29416, ip=[fdbd:dccd:cdc2:12c8:0:204::])   (input_layernorm): Qwen3RMSNorm((4096,), eps=1e-06)
(WorkerDict pid=29416, ip=[fdbd:dccd:cdc2:12c8:0:204::])   (post_attention_layernorm): Qwen3RMSNorm((4096,), eps=1e-06)
(WorkerDict pid=29416, ip=[fdbd:dccd:cdc2:12c8:0:204::]) ), {}), 'model.layers.26': (Qwen3DecoderLayer(
(WorkerDict pid=29416, ip=[fdbd:dccd:cdc2:12c8:0:204::])   (self_attn): Qwen3Attention(
(WorkerDict pid=29416, ip=[fdbd:dccd:cdc2:12c8:0:204::])     (q_proj): Linear(in_features=4096, out_features=4096, bias=False)
(WorkerDict pid=29416, ip=[fdbd:dccd:cdc2:12c8:0:204::])     (k_proj): Linear(in_features=4096, out_features=1024, bias=False)
(WorkerDict pid=29416, ip=[fdbd:dccd:cdc2:12c8:0:204::])     (v_proj): Linear(in_features=4096, out_features=1024, bias=False)
(WorkerDict pid=29416, ip=[fdbd:dccd:cdc2:12c8:0:204::])     (o_proj): Linear(in_features=4096, out_features=4096, bias=False)
(WorkerDict pid=29416, ip=[fdbd:dccd:cdc2:12c8:0:204::])     (q_norm): Qwen3RMSNorm((128,), eps=1e-06)
(WorkerDict pid=29416, ip=[fdbd:dccd:cdc2:12c8:0:204::])     (k_norm): Qwen3RMSNorm((128,), eps=1e-06)
(WorkerDict pid=29416, ip=[fdbd:dccd:cdc2:12c8:0:204::])   )
(WorkerDict pid=29416, ip=[fdbd:dccd:cdc2:12c8:0:204::])   (mlp): Qwen3MLP(
(WorkerDict pid=29416, ip=[fdbd:dccd:cdc2:12c8:0:204::])     (gate_proj): Linear(in_features=4096, out_features=12288, bias=False)
(WorkerDict pid=29416, ip=[fdbd:dccd:cdc2:12c8:0:204::])     (up_proj): Linear(in_features=4096, out_features=12288, bias=False)
(WorkerDict pid=29416, ip=[fdbd:dccd:cdc2:12c8:0:204::])     (down_proj): Linear(in_features=12288, out_features=4096, bias=False)
(WorkerDict pid=29416, ip=[fdbd:dccd:cdc2:12c8:0:204::])     (act_fn): SiLUActivation()
(WorkerDict pid=29416, ip=[fdbd:dccd:cdc2:12c8:0:204::])   )
(WorkerDict pid=29416, ip=[fdbd:dccd:cdc2:12c8:0:204::])   (input_layernorm): Qwen3RMSNorm((4096,), eps=1e-06)
(WorkerDict pid=29416, ip=[fdbd:dccd:cdc2:12c8:0:204::])   (post_attention_layernorm): Qwen3RMSNorm((4096,), eps=1e-06)
(WorkerDict pid=29416, ip=[fdbd:dccd:cdc2:12c8:0:204::]) ), {}), 'model.layers.27': (Qwen3DecoderLayer(
(WorkerDict pid=29416, ip=[fdbd:dccd:cdc2:12c8:0:204::])   (self_attn): Qwen3Attention(
(WorkerDict pid=29416, ip=[fdbd:dccd:cdc2:12c8:0:204::])     (q_proj): Linear(in_features=4096, out_features=4096, bias=False)
(WorkerDict pid=29416, ip=[fdbd:dccd:cdc2:12c8:0:204::])     (k_proj): Linear(in_features=4096, out_features=1024, bias=False)
(WorkerDict pid=29416, ip=[fdbd:dccd:cdc2:12c8:0:204::])     (v_proj): Linear(in_features=4096, out_features=1024, bias=False)
(WorkerDict pid=29416, ip=[fdbd:dccd:cdc2:12c8:0:204::])     (o_proj): Linear(in_features=4096, out_features=4096, bias=False)
(WorkerDict pid=29416, ip=[fdbd:dccd:cdc2:12c8:0:204::])     (q_norm): Qwen3RMSNorm((128,), eps=1e-06)
(WorkerDict pid=29416, ip=[fdbd:dccd:cdc2:12c8:0:204::])     (k_norm): Qwen3RMSNorm((128,), eps=1e-06)
(WorkerDict pid=29416, ip=[fdbd:dccd:cdc2:12c8:0:204::])   )
(WorkerDict pid=29416, ip=[fdbd:dccd:cdc2:12c8:0:204::])   (mlp): Qwen3MLP(
(WorkerDict pid=29416, ip=[fdbd:dccd:cdc2:12c8:0:204::])     (gate_proj): Linear(in_features=4096, out_features=12288, bias=False)
(WorkerDict pid=29416, ip=[fdbd:dccd:cdc2:12c8:0:204::])     (up_proj): Linear(in_features=4096, out_features=12288, bias=False)
(WorkerDict pid=29416, ip=[fdbd:dccd:cdc2:12c8:0:204::])     (down_proj): Linear(in_features=12288, out_features=4096, bias=False)
(WorkerDict pid=29416, ip=[fdbd:dccd:cdc2:12c8:0:204::])     (act_fn): SiLUActivation()
(WorkerDict pid=29416, ip=[fdbd:dccd:cdc2:12c8:0:204::])   )
(WorkerDict pid=29416, ip=[fdbd:dccd:cdc2:12c8:0:204::])   (input_layernorm): Qwen3RMSNorm((4096,), eps=1e-06)
(WorkerDict pid=29416, ip=[fdbd:dccd:cdc2:12c8:0:204::])   (post_attention_layernorm): Qwen3RMSNorm((4096,), eps=1e-06)
(WorkerDict pid=29416, ip=[fdbd:dccd:cdc2:12c8:0:204::]) ), {}), 'model.layers.28': (Qwen3DecoderLayer(
(WorkerDict pid=29416, ip=[fdbd:dccd:cdc2:12c8:0:204::])   (self_attn): Qwen3Attention(
(WorkerDict pid=29416, ip=[fdbd:dccd:cdc2:12c8:0:204::])     (q_proj): Linear(in_features=4096, out_features=4096, bias=False)
(WorkerDict pid=29416, ip=[fdbd:dccd:cdc2:12c8:0:204::])     (k_proj): Linear(in_features=4096, out_features=1024, bias=False)
(WorkerDict pid=29416, ip=[fdbd:dccd:cdc2:12c8:0:204::])     (v_proj): Linear(in_features=4096, out_features=1024, bias=False)
(WorkerDict pid=29416, ip=[fdbd:dccd:cdc2:12c8:0:204::])     (o_proj): Linear(in_features=4096, out_features=4096, bias=False)
(WorkerDict pid=29416, ip=[fdbd:dccd:cdc2:12c8:0:204::])     (q_norm): Qwen3RMSNorm((128,), eps=1e-06)
(WorkerDict pid=29416, ip=[fdbd:dccd:cdc2:12c8:0:204::])     (k_norm): Qwen3RMSNorm((128,), eps=1e-06)
(WorkerDict pid=29416, ip=[fdbd:dccd:cdc2:12c8:0:204::])   )
(WorkerDict pid=29416, ip=[fdbd:dccd:cdc2:12c8:0:204::])   (mlp): Qwen3MLP(
(WorkerDict pid=29416, ip=[fdbd:dccd:cdc2:12c8:0:204::])     (gate_proj): Linear(in_features=4096, out_features=12288, bias=False)
(WorkerDict pid=29416, ip=[fdbd:dccd:cdc2:12c8:0:204::])     (up_proj): Linear(in_features=4096, out_features=12288, bias=False)
(WorkerDict pid=29416, ip=[fdbd:dccd:cdc2:12c8:0:204::])     (down_proj): Linear(in_features=12288, out_features=4096, bias=False)
(WorkerDict pid=29416, ip=[fdbd:dccd:cdc2:12c8:0:204::])     (act_fn): SiLUActivation()
(WorkerDict pid=29416, ip=[fdbd:dccd:cdc2:12c8:0:204::])   )
(WorkerDict pid=29416, ip=[fdbd:dccd:cdc2:12c8:0:204::])   (input_layernorm): Qwen3RMSNorm((4096,), eps=1e-06)
(WorkerDict pid=29416, ip=[fdbd:dccd:cdc2:12c8:0:204::])   (post_attention_layernorm): Qwen3RMSNorm((4096,), eps=1e-06)
(WorkerDict pid=29416, ip=[fdbd:dccd:cdc2:12c8:0:204::]) ), {}), 'model.layers.29': (Qwen3DecoderLayer(
(WorkerDict pid=29416, ip=[fdbd:dccd:cdc2:12c8:0:204::])   (self_attn): Qwen3Attention(
(WorkerDict pid=29416, ip=[fdbd:dccd:cdc2:12c8:0:204::])     (q_proj): Linear(in_features=4096, out_features=4096, bias=False)
(WorkerDict pid=29416, ip=[fdbd:dccd:cdc2:12c8:0:204::])     (k_proj): Linear(in_features=4096, out_features=1024, bias=False)
(WorkerDict pid=29416, ip=[fdbd:dccd:cdc2:12c8:0:204::])     (v_proj): Linear(in_features=4096, out_features=1024, bias=False)
(WorkerDict pid=29416, ip=[fdbd:dccd:cdc2:12c8:0:204::])     (o_proj): Linear(in_features=4096, out_features=4096, bias=False)
(WorkerDict pid=29416, ip=[fdbd:dccd:cdc2:12c8:0:204::])     (q_norm): Qwen3RMSNorm((128,), eps=1e-06)
(WorkerDict pid=29416, ip=[fdbd:dccd:cdc2:12c8:0:204::])     (k_norm): Qwen3RMSNorm((128,), eps=1e-06)
(WorkerDict pid=29416, ip=[fdbd:dccd:cdc2:12c8:0:204::])   )
(WorkerDict pid=29416, ip=[fdbd:dccd:cdc2:12c8:0:204::])   (mlp): Qwen3MLP(
(WorkerDict pid=29416, ip=[fdbd:dccd:cdc2:12c8:0:204::])     (gate_proj): Linear(in_features=4096, out_features=12288, bias=False)
(WorkerDict pid=29416, ip=[fdbd:dccd:cdc2:12c8:0:204::])     (up_proj): Linear(in_features=4096, out_features=12288, bias=False)
(WorkerDict pid=29416, ip=[fdbd:dccd:cdc2:12c8:0:204::])     (down_proj): Linear(in_features=12288, out_features=4096, bias=False)
(WorkerDict pid=29416, ip=[fdbd:dccd:cdc2:12c8:0:204::])     (act_fn): SiLUActivation()
(WorkerDict pid=29416, ip=[fdbd:dccd:cdc2:12c8:0:204::])   )
(WorkerDict pid=29416, ip=[fdbd:dccd:cdc2:12c8:0:204::])   (input_layernorm): Qwen3RMSNorm((4096,), eps=1e-06)
(WorkerDict pid=29416, ip=[fdbd:dccd:cdc2:12c8:0:204::])   (post_attention_layernorm): Qwen3RMSNorm((4096,), eps=1e-06)
(WorkerDict pid=29416, ip=[fdbd:dccd:cdc2:12c8:0:204::]) ), {}), 'model.layers.30': (Qwen3DecoderLayer(
(WorkerDict pid=29416, ip=[fdbd:dccd:cdc2:12c8:0:204::])   (self_attn): Qwen3Attention(
(WorkerDict pid=29416, ip=[fdbd:dccd:cdc2:12c8:0:204::])     (q_proj): Linear(in_features=4096, out_features=4096, bias=False)
(WorkerDict pid=29416, ip=[fdbd:dccd:cdc2:12c8:0:204::])     (k_proj): Linear(in_features=4096, out_features=1024, bias=False)
(WorkerDict pid=29416, ip=[fdbd:dccd:cdc2:12c8:0:204::])     (v_proj): Linear(in_features=4096, out_features=1024, bias=False)
(WorkerDict pid=29416, ip=[fdbd:dccd:cdc2:12c8:0:204::])     (o_proj): Linear(in_features=4096, out_features=4096, bias=False)
(WorkerDict pid=29416, ip=[fdbd:dccd:cdc2:12c8:0:204::])     (q_norm): Qwen3RMSNorm((128,), eps=1e-06)
(WorkerDict pid=29416, ip=[fdbd:dccd:cdc2:12c8:0:204::])     (k_norm): Qwen3RMSNorm((128,), eps=1e-06)
(WorkerDict pid=29416, ip=[fdbd:dccd:cdc2:12c8:0:204::])   )
(WorkerDict pid=29416, ip=[fdbd:dccd:cdc2:12c8:0:204::])   (mlp): Qwen3MLP(
(WorkerDict pid=29416, ip=[fdbd:dccd:cdc2:12c8:0:204::])     (gate_proj): Linear(in_features=4096, out_features=12288, bias=False)
(WorkerDict pid=29416, ip=[fdbd:dccd:cdc2:12c8:0:204::])     (up_proj): Linear(in_features=4096, out_features=12288, bias=False)
(WorkerDict pid=29416, ip=[fdbd:dccd:cdc2:12c8:0:204::])     (down_proj): Linear(in_features=12288, out_features=4096, bias=False)
(WorkerDict pid=29416, ip=[fdbd:dccd:cdc2:12c8:0:204::])     (act_fn): SiLUActivation()
(WorkerDict pid=29416, ip=[fdbd:dccd:cdc2:12c8:0:204::])   )
(WorkerDict pid=29416, ip=[fdbd:dccd:cdc2:12c8:0:204::])   (input_layernorm): Qwen3RMSNorm((4096,), eps=1e-06)
(WorkerDict pid=29416, ip=[fdbd:dccd:cdc2:12c8:0:204::])   (post_attention_layernorm): Qwen3RMSNorm((4096,), eps=1e-06)
(WorkerDict pid=29416, ip=[fdbd:dccd:cdc2:12c8:0:204::]) ), {}), 'model.layers.31': (Qwen3DecoderLayer(
(WorkerDict pid=29416, ip=[fdbd:dccd:cdc2:12c8:0:204::])   (self_attn): Qwen3Attention(
(WorkerDict pid=29416, ip=[fdbd:dccd:cdc2:12c8:0:204::])     (q_proj): Linear(in_features=4096, out_features=4096, bias=False)
(WorkerDict pid=29416, ip=[fdbd:dccd:cdc2:12c8:0:204::])     (k_proj): Linear(in_features=4096, out_features=1024, bias=False)
(WorkerDict pid=29416, ip=[fdbd:dccd:cdc2:12c8:0:204::])     (v_proj): Linear(in_features=4096, out_features=1024, bias=False)
(WorkerDict pid=29416, ip=[fdbd:dccd:cdc2:12c8:0:204::])     (o_proj): Linear(in_features=4096, out_features=4096, bias=False)
(WorkerDict pid=29416, ip=[fdbd:dccd:cdc2:12c8:0:204::])     (q_norm): Qwen3RMSNorm((128,), eps=1e-06)
(WorkerDict pid=29416, ip=[fdbd:dccd:cdc2:12c8:0:204::])     (k_norm): Qwen3RMSNorm((128,), eps=1e-06)
(WorkerDict pid=29416, ip=[fdbd:dccd:cdc2:12c8:0:204::])   )
(WorkerDict pid=29416, ip=[fdbd:dccd:cdc2:12c8:0:204::])   (mlp): Qwen3MLP(
(WorkerDict pid=29416, ip=[fdbd:dccd:cdc2:12c8:0:204::])     (gate_proj): Linear(in_features=4096, out_features=12288, bias=False)
(WorkerDict pid=29416, ip=[fdbd:dccd:cdc2:12c8:0:204::])     (up_proj): Linear(in_features=4096, out_features=12288, bias=False)
(WorkerDict pid=29416, ip=[fdbd:dccd:cdc2:12c8:0:204::])     (down_proj): Linear(in_features=12288, out_features=4096, bias=False)
(WorkerDict pid=29416, ip=[fdbd:dccd:cdc2:12c8:0:204::])     (act_fn): SiLUActivation()
(WorkerDict pid=29416, ip=[fdbd:dccd:cdc2:12c8:0:204::])   )
(WorkerDict pid=29416, ip=[fdbd:dccd:cdc2:12c8:0:204::])   (input_layernorm): Qwen3RMSNorm((4096,), eps=1e-06)
(WorkerDict pid=29416, ip=[fdbd:dccd:cdc2:12c8:0:204::])   (post_attention_layernorm): Qwen3RMSNorm((4096,), eps=1e-06)
(WorkerDict pid=29416, ip=[fdbd:dccd:cdc2:12c8:0:204::]) ), {}), 'model.layers.32': (Qwen3DecoderLayer(
(WorkerDict pid=29416, ip=[fdbd:dccd:cdc2:12c8:0:204::])   (self_attn): Qwen3Attention(
(WorkerDict pid=29416, ip=[fdbd:dccd:cdc2:12c8:0:204::])     (q_proj): Linear(in_features=4096, out_features=4096, bias=False)
(WorkerDict pid=29416, ip=[fdbd:dccd:cdc2:12c8:0:204::])     (k_proj): Linear(in_features=4096, out_features=1024, bias=False)
(WorkerDict pid=29416, ip=[fdbd:dccd:cdc2:12c8:0:204::])     (v_proj): Linear(in_features=4096, out_features=1024, bias=False)
(WorkerDict pid=29416, ip=[fdbd:dccd:cdc2:12c8:0:204::])     (o_proj): Linear(in_features=4096, out_features=4096, bias=False)
(WorkerDict pid=29416, ip=[fdbd:dccd:cdc2:12c8:0:204::])     (q_norm): Qwen3RMSNorm((128,), eps=1e-06)
(WorkerDict pid=29416, ip=[fdbd:dccd:cdc2:12c8:0:204::])     (k_norm): Qwen3RMSNorm((128,), eps=1e-06)
(WorkerDict pid=29416, ip=[fdbd:dccd:cdc2:12c8:0:204::])   )
(WorkerDict pid=29416, ip=[fdbd:dccd:cdc2:12c8:0:204::])   (mlp): Qwen3MLP(
(WorkerDict pid=29416, ip=[fdbd:dccd:cdc2:12c8:0:204::])     (gate_proj): Linear(in_features=4096, out_features=12288, bias=False)
(WorkerDict pid=29416, ip=[fdbd:dccd:cdc2:12c8:0:204::])     (up_proj): Linear(in_features=4096, out_features=12288, bias=False)
(WorkerDict pid=29416, ip=[fdbd:dccd:cdc2:12c8:0:204::])     (down_proj): Linear(in_features=12288, out_features=4096, bias=False)
(WorkerDict pid=29416, ip=[fdbd:dccd:cdc2:12c8:0:204::])     (act_fn): SiLUActivation()
(WorkerDict pid=29416, ip=[fdbd:dccd:cdc2:12c8:0:204::])   )
(WorkerDict pid=29416, ip=[fdbd:dccd:cdc2:12c8:0:204::])   (input_layernorm): Qwen3RMSNorm((4096,), eps=1e-06)
(WorkerDict pid=29416, ip=[fdbd:dccd:cdc2:12c8:0:204::])   (post_attention_layernorm): Qwen3RMSNorm((4096,), eps=1e-06)
(WorkerDict pid=29416, ip=[fdbd:dccd:cdc2:12c8:0:204::]) ), {}), 'model.layers.33': (Qwen3DecoderLayer(
(WorkerDict pid=29416, ip=[fdbd:dccd:cdc2:12c8:0:204::])   (self_attn): Qwen3Attention(
(WorkerDict pid=29416, ip=[fdbd:dccd:cdc2:12c8:0:204::])     (q_proj): Linear(in_features=4096, out_features=4096, bias=False)
(WorkerDict pid=29416, ip=[fdbd:dccd:cdc2:12c8:0:204::])     (k_proj): Linear(in_features=4096, out_features=1024, bias=False)
(WorkerDict pid=29416, ip=[fdbd:dccd:cdc2:12c8:0:204::])     (v_proj): Linear(in_features=4096, out_features=1024, bias=False)
(WorkerDict pid=29416, ip=[fdbd:dccd:cdc2:12c8:0:204::])     (o_proj): Linear(in_features=4096, out_features=4096, bias=False)
(WorkerDict pid=29416, ip=[fdbd:dccd:cdc2:12c8:0:204::])     (q_norm): Qwen3RMSNorm((128,), eps=1e-06)
(WorkerDict pid=29416, ip=[fdbd:dccd:cdc2:12c8:0:204::])     (k_norm): Qwen3RMSNorm((128,), eps=1e-06)
(WorkerDict pid=29416, ip=[fdbd:dccd:cdc2:12c8:0:204::])   )
(WorkerDict pid=29416, ip=[fdbd:dccd:cdc2:12c8:0:204::])   (mlp): Qwen3MLP(
(WorkerDict pid=29416, ip=[fdbd:dccd:cdc2:12c8:0:204::])     (gate_proj): Linear(in_features=4096, out_features=12288, bias=False)
(WorkerDict pid=29416, ip=[fdbd:dccd:cdc2:12c8:0:204::])     (up_proj): Linear(in_features=4096, out_features=12288, bias=False)
(WorkerDict pid=29416, ip=[fdbd:dccd:cdc2:12c8:0:204::])     (down_proj): Linear(in_features=12288, out_features=4096, bias=False)
(WorkerDict pid=29416, ip=[fdbd:dccd:cdc2:12c8:0:204::])     (act_fn): SiLUActivation()
(WorkerDict pid=29416, ip=[fdbd:dccd:cdc2:12c8:0:204::])   )
(WorkerDict pid=29416, ip=[fdbd:dccd:cdc2:12c8:0:204::])   (input_layernorm): Qwen3RMSNorm((4096,), eps=1e-06)
(WorkerDict pid=29416, ip=[fdbd:dccd:cdc2:12c8:0:204::])   (post_attention_layernorm): Qwen3RMSNorm((4096,), eps=1e-06)
(WorkerDict pid=29416, ip=[fdbd:dccd:cdc2:12c8:0:204::]) ), {}), 'model.layers.34': (Qwen3DecoderLayer(
(WorkerDict pid=29416, ip=[fdbd:dccd:cdc2:12c8:0:204::])   (self_attn): Qwen3Attention(
(WorkerDict pid=29416, ip=[fdbd:dccd:cdc2:12c8:0:204::])     (q_proj): Linear(in_features=4096, out_features=4096, bias=False)
(WorkerDict pid=29416, ip=[fdbd:dccd:cdc2:12c8:0:204::])     (k_proj): Linear(in_features=4096, out_features=1024, bias=False)
(WorkerDict pid=29416, ip=[fdbd:dccd:cdc2:12c8:0:204::])     (v_proj): Linear(in_features=4096, out_features=1024, bias=False)
(WorkerDict pid=29416, ip=[fdbd:dccd:cdc2:12c8:0:204::])     (o_proj): Linear(in_features=4096, out_features=4096, bias=False)
(WorkerDict pid=29416, ip=[fdbd:dccd:cdc2:12c8:0:204::])     (q_norm): Qwen3RMSNorm((128,), eps=1e-06)
(WorkerDict pid=29416, ip=[fdbd:dccd:cdc2:12c8:0:204::])     (k_norm): Qwen3RMSNorm((128,), eps=1e-06)
(WorkerDict pid=29416, ip=[fdbd:dccd:cdc2:12c8:0:204::])   )
(WorkerDict pid=29416, ip=[fdbd:dccd:cdc2:12c8:0:204::])   (mlp): Qwen3MLP(
(WorkerDict pid=29416, ip=[fdbd:dccd:cdc2:12c8:0:204::])     (gate_proj): Linear(in_features=4096, out_features=12288, bias=False)
(WorkerDict pid=29416, ip=[fdbd:dccd:cdc2:12c8:0:204::])     (up_proj): Linear(in_features=4096, out_features=12288, bias=False)
(WorkerDict pid=29416, ip=[fdbd:dccd:cdc2:12c8:0:204::])     (down_proj): Linear(in_features=12288, out_features=4096, bias=False)
(WorkerDict pid=29416, ip=[fdbd:dccd:cdc2:12c8:0:204::])     (act_fn): SiLUActivation()
(WorkerDict pid=29416, ip=[fdbd:dccd:cdc2:12c8:0:204::])   )
(WorkerDict pid=29416, ip=[fdbd:dccd:cdc2:12c8:0:204::])   (input_layernorm): Qwen3RMSNorm((4096,), eps=1e-06)
(WorkerDict pid=29416, ip=[fdbd:dccd:cdc2:12c8:0:204::])   (post_attention_layernorm): Qwen3RMSNorm((4096,), eps=1e-06)
(WorkerDict pid=29416, ip=[fdbd:dccd:cdc2:12c8:0:204::]) ), {}), 'model.layers.35': (Qwen3DecoderLayer(
(WorkerDict pid=29416, ip=[fdbd:dccd:cdc2:12c8:0:204::])   (self_attn): Qwen3Attention(
(WorkerDict pid=29416, ip=[fdbd:dccd:cdc2:12c8:0:204::])     (q_proj): Linear(in_features=4096, out_features=4096, bias=False)
(WorkerDict pid=29416, ip=[fdbd:dccd:cdc2:12c8:0:204::])     (k_proj): Linear(in_features=4096, out_features=1024, bias=False)
(WorkerDict pid=29416, ip=[fdbd:dccd:cdc2:12c8:0:204::])     (v_proj): Linear(in_features=4096, out_features=1024, bias=False)
(WorkerDict pid=29416, ip=[fdbd:dccd:cdc2:12c8:0:204::])     (o_proj): Linear(in_features=4096, out_features=4096, bias=False)
(WorkerDict pid=29416, ip=[fdbd:dccd:cdc2:12c8:0:204::])     (q_norm): Qwen3RMSNorm((128,), eps=1e-06)
(WorkerDict pid=29416, ip=[fdbd:dccd:cdc2:12c8:0:204::])     (k_norm): Qwen3RMSNorm((128,), eps=1e-06)
(WorkerDict pid=29416, ip=[fdbd:dccd:cdc2:12c8:0:204::])   )
(WorkerDict pid=29416, ip=[fdbd:dccd:cdc2:12c8:0:204::])   (mlp): Qwen3MLP(
(WorkerDict pid=29416, ip=[fdbd:dccd:cdc2:12c8:0:204::])     (gate_proj): Linear(in_features=4096, out_features=12288, bias=False)
(WorkerDict pid=29416, ip=[fdbd:dccd:cdc2:12c8:0:204::])     (up_proj): Linear(in_features=4096, out_features=12288, bias=False)
(WorkerDict pid=29416, ip=[fdbd:dccd:cdc2:12c8:0:204::])     (down_proj): Linear(in_features=12288, out_features=4096, bias=False)
(WorkerDict pid=29416, ip=[fdbd:dccd:cdc2:12c8:0:204::])     (act_fn): SiLUActivation()
(WorkerDict pid=29416, ip=[fdbd:dccd:cdc2:12c8:0:204::])   )
(WorkerDict pid=29416, ip=[fdbd:dccd:cdc2:12c8:0:204::])   (input_layernorm): Qwen3RMSNorm((4096,), eps=1e-06)
(WorkerDict pid=29416, ip=[fdbd:dccd:cdc2:12c8:0:204::])   (post_attention_layernorm): Qwen3RMSNorm((4096,), eps=1e-06)
…
ated 3x across cluster][0m
(WorkerDict pid=29651, ip=[fdbd:dccd:cdc2:12c8:0:204::]) [INFO|/opt/tiger/ray/session_2026-07-22_21-51-44_016392_3268/runtime_resources/working_dir_files/_ray_pkg_2bdef8199c6fe908/submodules/Open-VeOmni/veomni/distributed/torch_parallelize.py:215] 07/22/2026 22:11:56 >> extra_parallel layer pairs: {'model.layers.0': (Qwen3DecoderLayer([32m [repeated 3x across cluster][0m
(WorkerDict pid=29651, ip=[fdbd:dccd:cdc2:12c8:0:204::])   (self_attn): Qwen3Attention([32m [repeated 252x across cluster][0m
(WorkerDict pid=29651, ip=[fdbd:dccd:cdc2:12c8:0:204::])     (q_proj): Linear(in_features=4096, out_features=4096, bias=False)[32m [repeated 252x across cluster][0m
(WorkerDict pid=29651, ip=[fdbd:dccd:cdc2:12c8:0:204::])     (k_proj): Linear(in_features=4096, out_features=1024, bias=False)[32m [repeated 252x across cluster][0m
(WorkerDict pid=29651, ip=[fdbd:dccd:cdc2:12c8:0:204::])     (v_proj): Linear(in_features=4096, out_features=1024, bias=False)[32m [repeated 252x across cluster][0m
(WorkerDict pid=29651, ip=[fdbd:dccd:cdc2:12c8:0:204::])     (o_proj): Linear(in_features=4096, out_features=4096, bias=False)[32m [repeated 252x across cluster][0m
(WorkerDict pid=29651, ip=[fdbd:dccd:cdc2:12c8:0:204::])     (q_norm): Qwen3RMSNorm((128,), eps=1e-06)[32m [repeated 252x across cluster][0m
(WorkerDict pid=29651, ip=[fdbd:dccd:cdc2:12c8:0:204::])     (k_norm): Qwen3RMSNorm((128,), eps=1e-06)[32m [repeated 252x across cluster][0m
(WorkerDict pid=29651, ip=[fdbd:dccd:cdc2:12c8:0:204::])   )[32m [repeated 504x across cluster][0m
(WorkerDict pid=29651, ip=[fdbd:dccd:cdc2:12c8:0:204::])   (mlp): Qwen3MLP([32m [repeated 252x across cluster][0m
(WorkerDict pid=29651, ip=[fdbd:dccd:cdc2:12c8:0:204::])     (gate_proj): Linear(in_features=4096, out_features=12288, bias=False)[32m [repeated 252x across cluster][0m
(WorkerDict pid=29651, ip=[fdbd:dccd:cdc2:12c8:0:204::])     (up_proj): Linear(in_features=4096, out_features=12288, bias=False)[32m [repeated 252x across cluster][0m
(WorkerDict pid=29651, ip=[fdbd:dccd:cdc2:12c8:0:204::])     (down_proj): Linear(in_features=12288, out_features=4096, bias=False)[32m [repeated 252x across cluster][0m
(WorkerDict pid=29651, ip=[fdbd:dccd:cdc2:12c8:0:204::])     (act_fn): SiLUActivation()[32m [repeated 252x across cluster][0m
(WorkerDict pid=29651, ip=[fdbd:dccd:cdc2:12c8:0:204::])   (input_layernorm): Qwen3RMSNorm((4096,), eps=1e-06)[32m [repeated 252x across cluster][0m
(WorkerDict pid=29651, ip=[fdbd:dccd:cdc2:12c8:0:204::])   (post_attention_layernorm): Qwen3RMSNorm((4096,), eps=1e-06)[32m [repeated 252x across cluster][0m
…
